models/Discrete/FrozenLake-v1/DQN/8x8/final_weights_DQN_FrozenLake-v1_8x8_3000.pth (torch, 7329 bytes, 6 tensors)

FC.0.weight f4 [12, 64]
0	0xbe857bf0	-0.2607112
1	0xbe7991f5	-0.24372084
2	0x3e1a8f93	0.15093832
3	0xbe0c5ccc	-0.13707274
4	0xbdbfa5ce	-0.093577966
5	0xbe275a7b	-0.1634311
6	0xbe0b625e	-0.13611743
7	0xbe83cc0f	-0.25741622
8	0xba8ae3cc	-0.0010596453
9	0x3ccbd9d6	0.024884146
10	0xbe3c4c56	-0.18388495
11	0xbe0bde21	-0.13658954
12	0xbdc8d344	-0.09805921
13	0xbe221778	-0.15829265
14	0xbe1f8135	-0.15576632
15	0xbe547e48	-0.20751297
16	0x3e348fd8	0.17632997
17	0xbe872131	-0.2639251
18	0xbdbd2c00	-0.09236908
19	0xbe1dcdd4	-0.15410548
20	0xbe040add	-0.12894769
21	0x3d176206	0.036958717
22	0xbe14028f	-0.14454101
23	0xbe3c9de2	-0.18419603
24	0x3e2622dc	0.16224235
25	0x3d72cc71	0.059277
26	0xbdfa00d8	-0.12207192
27	0x3cb9ff4f	0.022704748
28	0x3c97164a	0.018443245
29	0x3e01ef2a	0.1268889
30	0xbe7283fa	-0.23683158
31	0xbe0b425c	-0.13599533
32	0xbd340d69	-0.0439581
33	0xbe8a9d37	-0.2707307
34	0x3ef6c8d3	0.48200092
35	0x3e9a7545	0.30167595
36	0xbe109999	-0.14121093
37	0xbe0dbded	-0.13841982
38	0xbe21669f	-0.15761803
39	0x3e92ac1d	0.28646937
40	0x3e84b3f6	0.2591855
41	0x3dbc8478	0.09204954
42	0xbe812a50	-0.25227594
43	0xbd95a195	-0.0730621
44	0xbd3e7eda	-0.046507694
45	0x3f02864e	0.5098618
46	0x3e79bf4a	0.24389377
47	0x3e8a133d	0.26967803
48	0x3db7bef0	0.08971965
49	0x3e181e2a	0.14855257
50	0x3e67ca24	0.22635704
51	0xbe70d614	-0.23519164
52	0x3e88be47	0.2670767
53	0x3def54fc	0.11686131
54	0x3e88a005	0.26684585
55	0xbe77867c	-0.24172395
56	0xbde9d682	-0.11417867
57	0xbe1e8dec	-0.15483826
58	0x3e96148d	0.29312554
59	0x3e7f734e	0.24946329
60	0x3e8fe2de	0.28102773
61	0x3e8a3dd2	0.2700029
62	0xbe483cd4	-0.19554454
63	0x3e6be1e6	0.23035392
64	0xbe748fce	-0.23882982
65	0xbdc965ed	-0.09833894
66	0x3d549ac8	0.051905423
67	0x3ebc2305	0.36745468
68	0x3ea53677	0.32268116
69	0x3ea4e1bb	0.3220347
70	0x3f1eca79	0.620277
71	0xbb368036	-0.0027847416
72	0xbe554669	-0.2082764
73	0xbe7aef33	-0.2450531
74	0xbd9d59df	-0.07683157
75	0x3c64e54c	0.013970684
76	0x3e6a0bd4	0.22856075
77	0x3e9e6ae5	0.3094093
78	0x3e92961a	0.28630143
79	0x3e82aaeb	0.25521025
80	0x3e477ca2	0.19481137
81	0xbd85dbcd	-0.06536064
82	0x3eddd067	0.4332306
83	0xbcba0b40	-0.022710443
84	0xbd574012	-0.052551337
85	0xbe095d71	-0.13414551
86	0x3df7e01f	0.121032946
87	0x3e4695ce	0.19393083
88	0x3bd48469	0.006485511
89	0x3e3fa132	0.18713835
90	0xbe2dff0a	-0.16991821
91	0xbd05604f	-0.03256255
92	0x3f3fe98c	0.7496574
93	0x3d63d808	0.055625945
94	0xbdbbceb1	-0.09170283
95	0x3defb9de	0.11705373
96	0xbd78709a	-0.06065426
97	0x3f0ae10b	0.5424964
98	0xbd0e23be	-0.034702055
99	0x3e3d13fc	0.18464655
100	0xbdab7a10	-0.08372891
101	0xbeea5bc4	-0.45773137
102	0x3e273061	0.16327049
103	0xbeba2ac9	-0.36360767
104	0x3e092dc1	0.1339636
105	0xbd195998	-0.03743896
106	0x3e200276	0.15625939
107	0x3e5de351	0.21668746
108	0xbe08cfb8	-0.13360488
109	0xbb8a8492	-0.0042272294
110	0xbc4f9a60	-0.012671083
111	0xbe6604cb	-0.22462766
112	0xbe25972a	-0.16170946
113	0x3dbcef90	0.092253804
114	0x3d30a5de	0.043126933
115	0x3eb7f7c0	0.35931206
116	0x3cec2f80	0.028831244
117	0x3eb8e3aa	0.36111194
118	0xbbf7a240	-0.0075571835
119	0x3f0468fe	0.51722705
120	0x3e23f729	0.16012253
121	0xbb122ee0	-0.0022305772
122	0xbe143ce2	-0.1447635
123	0x3d48dee8	0.049040705
124	0xbdf8cde1	-0.12148643
125	0xbd96da8d	-0.07365904
126	0xbe8c6778	-0.2742269
127	0xbe516499	-0.20448531
128	0x3d162343	0.036654722
129	0x3d2dbd90	0.04241711
130	0xbe17db05	-0.14829643
131	0xbe39b187	-0.18134128
132	0x3e6f6342	0.23377708
133	0x3d81577e	0.06315516
134	0x3d785a3e	0.060632937
135	0xbd0cd2f8	-0.034380883
136	0xbe9a6fa3	-0.30163297
137	0xbd3df828	-0.04637924
138	0x3d96feda	0.07372828
139	0xbc20a21f	-0.009804278
140	0xbe519dfa	-0.2047042
141	0x3d996c3f	0.074913494
142	0x3c762f50	0.015025929
143	0x3c73eca7	0.014887965
144	0x3e235af0	0.15952659
145	0x3d55a678	0.05216071
146	0xbe1579e9	-0.14597286
147	0x3d9e3094	0.07724109
148	0xbc402240	-0.011726916
149	0xbe21d33a	-0.15803233
150	0xbe06d5d9	-0.13167514
151	0xbd0520c8	-0.032501966
152	0x3cddac8d	0.027059818
153	0xbe802003	-0.25024423
154	0x3cbe8cde	0.02326053
155	0x3f5eb43d	0.8699377
156	0x3adab28b	0.001668529
157	0xbe13e9df	-0.14444683
158	0x3d88535a	0.06656523
159	0x3cd54171	0.026032181
160	0xbe180170	-0.14844298
161	0xb9ca60a6	-0.0003860045
162	0xbe528b21	-0.20560886
163	0xbdba6a0e	-0.091022596
164	0x3a92ba80	0.0011194497
165	0xbe5d6db1	-0.21623875
166	0xbe2e3c30	-0.17015147
167	0xbe6318b0	-0.22177386
168	0xbe9aeea4	-0.30260193
169	0x3e279e54	0.16368991
170	0xbe0d3fb9	-0.1379384
171	0xbe0112b3	-0.1260479
172	0x3eaa144b	0.33218607
173	0xbe834943	-0.25641832
174	0xbe4e298a	-0.20133033
175	0xbe989848	-0.2980368
176	0xbd467928	-0.048455387
177	0x3e9c9d91	0.30588964
178	0xbe322948	-0.1739856
179	0x3e0a9f99	0.13537444
180	0xbc073d40	-0.008254349
181	0x3df9f079	0.1220407
182	0xbe84f49a	-0.25967866
183	0x3d854c65	0.06508712
184	0x3e7830b9	0.24237336
185	0xbe57e85e	-0.21084735
186	0x3ca71010	0.020393401
187	0xbe0ed4ca	-0.1394836
188	0xbd99381a	-0.07481404
189	0xbdb3900c	-0.08767709
190	0xbe367710	-0.17818856
191	0x3e103060	0.14080954
192	0xbe9ea806	-0.30987567
193	0xbcb1fda8	-0.021727398
194	0xbda38cbb	-0.079858266
195	0xbc498b6c	-0.012301307
196	0x3e95bf12	0.29247338
197	0x3e5e8483	0.21730237
198	0x3e8c9e46	0.27464503
199	0x3d6f4fe2	0.05842579
200	0x3e6f1899	0.23349227
201	0x3e27bec7	0.1638137
202	0x3e5339d3	0.20627527
203	0xbde9117f	-0.1138029
204	0x3de7b1b9	0.11313195
205	0x3e89f130	0.26941824
206	0x3e7075f8	0.23482502
207	0x3e2170fa	0.15765753
208	0x3df1dfcf	0.11810266
209	0xbe521cd8	-0.20518816
210	0xbe8f0904	-0.27936566
211	0xbe9c1add	-0.30489245
212	0x3d9948ae	0.07484566
213	0x3c85a795	0.01631526
214	0x3eb409cf	0.35163733
215	0x3ec0ddef	0.37669322
216	0xbcf4bf13	-0.029876268
217	0xbd79c2e1	-0.060976867
218	0xbc0ede89	-0.008720049
219	0xbe46c38c	-0.19410533
220	0xbdd60de6	-0.1045187
221	0xbe29597b	-0.1653804
222	0x3a40a711	0.00073491136
223	0x3f1ad154	0.6047566
224	0x3b40bc55	0.002940913
225	0xbe9fe65f	-0.31230447
226	0x3d64232f	0.055697616
227	0x3dbc0224	0.09180096
228	0xbe40d1bb	-0.18830006
229	0x3e665465	0.22493131
230	0x3d5098bc	0.05092691
231	0x3ec32183	0.38111505
232	0x3df9351b	0.12168332
233	0x3e26cb5a	0.1628851
234	0x3ca89440	0.020578504
235	0xbb369de7	-0.0027865113
236	0x3e98bc1d	0.2983102
237	0xbd9efcf6	-0.07763092
238	0xbe5a0998	-0.21292722
239	0xbe93f947	-0.2890112
240	0x3e18433d	0.148694
241	0x3e8270a5	0.25476566
242	0x3e562121	0.20911075
243	0xbd981f00	-0.07427788
244	0x3d2aede0	0.04173076
245	0xbe9e7d60	-0.3095503
246	0xbc683120	-0.014171869
247	0x3e276943	0.16348748
248	0xbe96422c	-0.2934736
249	0xbe4f2e29	-0.20232452
250	0xbe30cb98	-0.17265165
251	0xbd1c0998	-0.038095087
252	0xbe369155	-0.17828877
253	0x3c425258	0.011860453
254	0xbe999eff	-0.30004117
255	0x3dfe5178	0.12417883

FC.0.bias f4 [12]
0	0x3d7c4c0e	0.06159597
1	0x3ee8a7a0	0.45440388
2	0xbda2b5cb	-0.079448305
3	0x3e98535e	0.29751104
4	0x3edb93a0	0.42886066
5	0xbe3f4739	-0.18679513
6	0x3e1e3700	0.15450668
7	0xbd897844	-0.06712392
8	0xbe658338	-0.22413337
9	0xbe05c774	-0.13064367
10	0xbe531802	-0.20614627
11	0x3e849aeb	0.25899443

FC.2.weight f4 [8, 12]
0	0xbf0f633c	-0.56010795
1	0xbf134756	-0.57530725
2	0x3d3c2120	0.045930028
3	0xbec3f4e2	-0.38272768
4	0x3da00338	0.07813114
5	0xbda83da8	-0.08214885
6	0xbd587f00	-0.05285549
7	0x3f19b2ab	0.6003825
8	0xbf1fa912	-0.62367356
9	0x3e3238e0	0.17404509
10	0x3d9f7b08	0.07787138
11	0xbd4d0fd0	-0.050063908
12	0xbedbd266	-0.4293396
13	0x3ebe6fc7	0.37194654
14	0xbf2c3c21	-0.6727925
15	0x3ea7682e	0.3269667
16	0xbe1e792f	-0.15475915
17	0xbef07d30	-0.4697051
18	0x3e9c7138	0.3055513
19	0x3f4944e9	0.78620774
20	0x3f076f5f	0.52904314
21	0xbf55dad6	-0.8353704
22	0xbea73fe7	-0.3266594
23	0xbf199716	-0.59996164
24	0x3e69af9a	0.22820893
25	0xbef298ca	-0.47382194
26	0xbd3f85ad	-0.046758343
27	0x3ef512f6	0.4786603
28	0x3ed0cfd2	0.40783554
29	0xbde33b64	-0.11095312
30	0xbf2ce90c	-0.675431
31	0xbe67eb24	-0.22648293
32	0xbf179cfd	-0.5922392
33	0xbe8d5a8d	-0.27608147
34	0x3f1bfec5	0.6093562
35	0x3f48384f	0.7821092
36	0x3e8f595d	0.27997866
37	0xbd1a792e	-0.037713222
38	0x3e90a6f0	0.28252363
39	0xbf16e9c0	-0.58950424
40	0x3d5ad016	0.053421102
41	0xbe7e93fa	-0.24861136
42	0xbf2d6056	-0.6772512
43	0xbeca76af	-0.39543673
44	0x3e842bc6	0.25814646
45	0x3ec38592	0.38187844
46	0xbed50de0	-0.41612148
47	0xbf27cf6a	-0.65550864
48	0xbf144143	-0.5791208
49	0x3f3d5104	0.73951745
50	0xbdfe9ab2	-0.124318495
51	0x3f132a4e	0.57486427
52	0xbf17931b	-0.5920884
53	0x3ecfb094	0.40564406
54	0x3f16b811	0.58874613
55	0xbed81d7a	-0.4220999
56	0xbd649c4e	-0.055813126
57	0xbf06dde6	-0.5268234
58	0xbed9bc38	-0.42526412
59	0xbe5a62c9	-0.21326746
60	0xbf7fdd0c	-0.99946666
61	0xbef50eae	-0.47862762
62	0x3db182c9	0.086675234
63	0xbf9301ff	-1.1484984
64	0xbf28fe91	-0.6601344
65	0xbed5b707	-0.417412
66	0xbfa3dad7	-1.280116
67	0xbf206ecc	-0.6266906
68	0xbd026c8b	-0.031841796
69	0x3ec27502	0.37979895
70	0xbe9f62ba	-0.3113001
71	0x3f660b7a	0.8986126
72	0x3f7aca81	0.97965246
73	0x3f328162	0.6972867
74	0xbf3b35ea	-0.7312914
75	0xbeb24776	-0.34820145
76	0xbefa90e6	-0.48938674
77	0xbf03f4b3	-0.51545256
78	0xbf326bc5	-0.69695693
79	0xbf32774f	-0.697133
80	0x3e3bdc60	0.18345785
81	0x3ee93c26	0.45553702
82	0xbec26c4e	-0.37973255
83	0x3da2db7b	0.07952019
84	0xbe30b009	-0.17254652
85	0xbd7254fe	-0.059163086
86	0x3f116687	0.5679707
87	0x3ece0cf5	0.4024426
88	0x3f6eddd0	0.9330721
89	0xbe8862f2	-0.2663799
90	0x3f0151f3	0.5051567
91	0x3e430ef3	0.19048671
92	0x3da935ec	0.08262238
93	0xbee712bf	-0.4513149
94	0x3e97e296	0.2966506
95	0xbf45d5fa	-0.7727963

FC.2.bias f4 [8]
0	0xbe647d60	-0.22313452
1	0xbe59b23c	-0.21259397
2	0xbd99f707	-0.0751782
3	0xbe5036a2	-0.20333341
4	0xbd3a1fac	-0.04544036
5	0x3e3f76f5	0.18697722
6	0xbe65ed92	-0.22453907
7	0x3dac0511	0.08399404

FC.4.weight f4 [4, 8]
0	0xbf5303d9	-0.82427746
1	0x3dc4ab89	0.0960303
2	0x3dcb8b16	0.09938638
3	0x3f3af37d	0.73027784
4	0xbde4eec7	-0.11178356
5	0x3fc0ec68	1.5072145
6	0x3e82395b	0.25434384
7	0x3f40c287	0.75296825
8	0x3cbc1780	0.022960424
9	0xbe326682	-0.17421916
10	0x3f711ad6	0.94181573
11	0xbd80fd38	-0.06298298
12	0x3f517643	0.8182108
13	0x3e0a7765	0.13522108
14	0xbf27520a	-0.65359557
15	0xbdf92258	-0.12164754
16	0xbe97cf80	-0.29650497
17	0x3f2dbdb6	0.678676
18	0x3f38a3d4	0.7212498
19	0xbf1a95c3	-0.6038477
20	0x3e9593cb	0.2921432
21	0xbd4b1881	-0.049583916
22	0xbf810843	-1.0080646
23	0xbdd6c638	-0.10487026
24	0xbe1a4988	-0.15067112
25	0x3f142e91	0.57883555
26	0x3f2fb44d	0.6863449
27	0xbf239c51	-0.63910395
28	0x3e91b63b	0.28459343
29	0x3cf2c255	0.02963368
30	0xbd005d15	-0.03133877
31	0xbda546f7	-0.08070176

FC.4.bias f4 [4]
0	0xbe225065	-0.1585098
1	0x3e6e0f58	0.2324804
2	0x3eab841e	0.33499235
3	0x3e90693f	0.28205296
