models/Discrete/MountainCar-v0/DQN/final_weights_DQN_MountainCar-v0_2000.pth (torch, 4157 bytes, 6 tensors)

FC.0.weight f4 [12, 2]
00000000: fa4a d5bf 0a8d 2abf 06f1 f3be 2bf7 2fc0
00000010: ec4c 2f3f 843b 5a40 b9ef b0be ea36 c7bf
00000020: fe2a c1bf a00e dd3d b274 053f 0226 3abf
00000030: f205 31bf 9ca3 8abe f053 95c0 3954 843e
00000040: 45f6 5240 0204 be3e 66eb 2d40 d75e 44c0
00000050: 6999 2a40 6156 8f3d 2410 4ac0 308d 4ac0
-1.6663506 -0.6662146 -0.47644824 -2.749461 0.6847675 3.4098825 -0.34557894 -1.5563633
-1.5091245 0.10793805 0.5213119 -0.72714245 -0.69149697 -0.2707795 -4.6664963 0.25845507
3.296281 0.37112433 2.7174926 -3.0682886 2.6656134 0.06998897 -3.1572351 -3.1648674

FC.0.bias f4 [12]
00000000: 20fe 6cbd f052 1a40 39ed 03c0 8171 3240
00000010: daa0 0ebf af7a 12bf 289c 92bd 06b3 913f
00000020: ce04 993f d503 94bf 5538 c33e 6592 2240
-0.05785954 2.411312 -2.061354 2.7881777 -0.5571419 -0.5721845 -0.07158691 1.1382759
1.1954591 -1.156367 0.38128915 2.5401852

FC.2.weight f4 [8, 12]
00000000: 5a52 993e 4895 bfbd ac34 0ebf e0f7 adbd
00000010: 0342 d3be 4883 803e c923 023f 5848 c43d
00000020: 5c6a b4be 92ed 9f3e 84b9 10be f061 93be
00000030: cece bd3e c34b c7c0 985c c0c0 d806 93c0
00000040: fb1b 313f 56aa 58be b02c 7abd 5e19 2bc0
00000050: bd09 1440 0b50 d6bf 182c c33e bca0 1bc0
00000060: d6a5 ef3e 1147 75bd 05d2 debf 36d3 313f
00000070: d487 1dbe 93c6 20bf 2ec7 ea3e 2449 82c1
00000080: 5605 25bd 3b1f 1ec1 9df3 4ebf 1db5 0ec0
00000090: 48f0 efbd 6c0c 7ec1 b01b 37c0 8faf 3a3f
000000a0: 90db 9d3d 4673 c03e 5624 a83e 4830 6ac0
000000b0: d8a9 523e 3be2 e7c0 7e41 7fbe e12e 32c0
000000c0: d14d 333f aabd 9d3e e7cf e3be 4e79 10bf
000000d0: 5104 98be 2790 11bf b093 80be d059 9e3d
000000e0: 06ac c2be 20f3 de3c cc0b 063e 9833 63be
000000f0: 9cb8 363e 690d b9c0 03a9 ddc0 b7c6 a23f
00000100: 2c5d 9abe 940b 85be 5a0c 993e bf52 58c0
00000110: 6478 963f 41b0 8a3e e8ad fa3d 1817 1a40
00000120: db97 0ebf 85da ddc0 3a5d 5ec0 d393 8cbf
00000130: 08a1 9f3d d028 9abe 08cd a1bd e895 5740
00000140: a5f5 2240 f603 84c1 0505 0f40 c9f3 fd3f
00000150: 21e9 203f 54f6 483e 50b6 0d3d 00fc aebd
00000160: 6165 bcbe 9891 903e dda9 95be 1845 da3d
00000170: 1438 183e 9c70 04bf fa2b 21bf e0a3 14bf
0.29945642 -0.09354645 -0.5554912 -0.08494544 -0.412613 0.2510016 0.50835854 0.09584111
-0.35237396 0.3123594 -0.14133269 -0.28785658 0.37071842 -6.2279983 -6.011303 -4.5945854
0.6918332 -0.21158728 -0.061077774 -2.6734233 2.3130944 -1.6743177 0.38119578 -2.4316854
0.4680621 -0.059882227 -1.7407843 0.6946291 -0.15383846 -0.62803 0.45855087 -16.285713
-0.040288292 -9.882625 -0.80840474 -2.2298043 -0.11715752 -15.878033 -2.861065 0.7292413
0.07707894 0.37587947 0.32840222 -3.6591969 0.20572603 -7.246366 -0.24927327 -2.7841113
0.70040613 0.30808765 -0.44494554 -0.56435096 -0.29690793 -0.56860584 -0.25112677 0.07731974
-0.38021868 0.02721554 0.13090438 -0.2218765 0.1784386 -5.782887 -6.9268813 1.2716893
-0.3014921 -0.25985396 0.29892236 -3.3800504 1.175549 0.27087596 0.12240201 2.4076595
-0.55700463 -6.9329247 -3.47444 -1.0982612 0.07794386 -0.30109262 -0.07900435 3.3685246
2.546243 -16.501934 2.2346814 1.9840022 0.62855726 0.19625217 0.034597695 -0.08544159
-0.36796096 0.2823608 -0.29231158 0.1065771 0.14865142 -0.5173433 -0.6295773 -0.58062553

FC.2.bias f4 [8]
00000000: c01a 4abc 1b13 e7be d9d6 d6be 2ecb 16bf
00000010: 58b0 e23d c4df 5440 37e6 85be 00c7 36be
-0.012335479 -0.45131764 -0.4196079 -0.5890378 0.11068791 3.3261576 -0.26152202 -0.1784935

FC.4.weight f4 [3, 8]
00000000: 1d68 1e3f dba6 29c1 6a46 05c1 8fa6 dcc0
00000010: 88a0 04be 40c6 2dc1 467a b040 dcd5 7c3e
00000020: 2e49 9d3e cf0a 20c1 4f54 fcc0 8fd8 cac0
00000030: e252 d93e 5e19 31c1 ef01 bc40 20dd 4fbd
00000040: e12f 3a3f 3d6d 1ec1 adc8 09c1 38ef 06c1
00000050: ae33 2dbf d360 37c1 8081 cb40 da19 fb3e
0.61877614 -10.603236 -8.329691 -6.895332 -0.12951863 -10.860901 5.514926 0.24690956
0.30719894 -10.002639 -7.8852916 -6.3389354 0.42446047 -11.068693 5.875236 -0.05074799
0.7272931 -9.9016695 -8.611493 -8.433403 -0.6765698 -11.461139 6.359558 0.4904316

FC.4.bias f4 [3]
00000000: c618 b641 0fc7 b741 3f1e ba41
22.762096 22.972197 23.264769
