models/Discrete/FrozenLake-v1/DQN/4x4/final_weights_DQN_FrozenLake-v1_4x4_3000.pth (torch, 5025 bytes, 6 tensors)

FC.0.weight f4 [12, 16]
000000 68 7e c3 bd 52 86 6e be 4c c1 dd 3e 52 10 68 be
       -0.095455945 -0.23293427 0.43311536 -0.22662476
000010 7a 17 94 bd a0 3b 83 bc d8 49 cc be d8 67 c5 bd
       -0.0723104 -0.016019642 -0.39900088 -0.09638947
000020 c3 ec 99 3e 7f f5 f9 be 8b 5b a0 3e a4 2f 91 3e
       0.30063447 -0.4882011 0.31319842 0.2835666
000030 00 97 24 bc 80 fe 98 bd d0 40 89 be b9 8e 12 3f
       -0.010045767 -0.07470417 -0.2680726 0.5724903
000040 88 73 40 3e 9b 11 aa 3e 3c 0c 15 3f b0 99 08 bd
       0.18794072 0.33216557 0.58221793 -0.033349693
000050 d0 1e 4f 3d 00 2b 6b 3d d6 f2 0f 3f c0 37 5c 3d
       0.050566494 0.057414055 0.56229913 0.053764105
000060 93 bd 9b 3e 66 87 4e be 44 b3 30 be 9f c9 0a 3f
       0.3041807 -0.20168838 -0.17255884 0.542139
000070 4c c4 0f 3e a2 a0 f1 3e b0 49 f5 be 52 75 da 3e
       0.14039725 0.47192866 -0.47907782 0.42667633
000080 02 c7 cb be c8 7d 1d 3e 98 93 ea 3e bf ea 80 3e
       -0.39800268 0.15380013 0.4581573 0.25179097
000090 16 68 16 bf 80 90 48 be bc a9 dd 3d 70 ff 59 3e
       -0.5875257 -0.19586372 0.1082339 0.21288848
0000a0 ec a8 66 3e e8 b7 78 be ef ad 0c bf 15 1d 08 bf
       0.22525376 -0.24288905 -0.549529 -0.53169376
0000b0 80 30 8e bb 7a 75 f1 be 48 1c 36 be 4e 3b 98 3e
       -0.0043392777 -0.4715994 -0.17784226 0.29732746
0000c0 6e 76 41 be d0 92 21 be 69 35 8f be 4e 1a 01 bf
       -0.18892834 -0.15778661 -0.27970436 -0.5043076
0000d0 eb 35 c6 be b5 30 81 be 98 5a 20 3f 0a f6 e7 3e
       -0.3871301 -0.25232473 0.62638235 0.453049
0000e0 61 4f 32 3d 08 cb 05 bf 15 0b 0c bf d8 1b 1d 3e
       0.043532733 -0.52262926 -0.5470441 0.15342653
0000f0 a8 47 ae 3d 1a b2 13 3f 0c 00 21 3f df ac 1c 3f
       0.08509761 0.57693636 0.62890697 0.6120128
000100 31 78 da be b0 86 a2 3e 1c 46 4a be 6b 13 27 3e
       -0.42669824 0.31743383 -0.19753307 0.16316001
000110 8a 0d 15 bf d6 37 02 bf a3 96 b2 3e 50 70 3a 3d
       -0.58223784 -0.5086645 0.34880552 0.045517266
000120 93 bd c3 be ae fc 12 3f 9d 78 02 bf c0 02 0b bc
       -0.3823057 0.5741681 -0.5096529 -0.008484542
000130 b0 3c dc 3d 7e 81 a3 3e 26 99 f8 be 30 ff 35 3d
       0.10753763 0.31934732 -0.48554343 0.04443282
000140 15 63 84 be 93 c3 10 bf 1c f2 96 be 00 f8 da bd
       -0.25856844 -0.5654842 -0.2948159 -0.106918335
000150 61 9b 34 3e 2b 20 8f be 6f a6 03 bf a0 f8 dc 3c
       0.17637397 -0.2795423 -0.5142583 0.026974022
000160 5d 49 15 3f 8a 6e f2 3e 87 6f 31 3e 00 aa 41 bd
       0.5831507 0.4734996 0.173277 -0.047281265
000170 ec 04 74 be 22 3f 17 3f 73 ab 31 3e f3 07 14 3f
       -0.23830003 0.5908071 0.17350559 0.5782463
000180 f0 1f 78 3d 98 df 12 be a1 5a 02 bf a6 48 eb 3e
       0.060577333 -0.14343107 -0.5091954 0.45953864
000190 c9 b5 4e 3e 40 0c 24 3e b8 f8 87 bd 53 c1 bc be
       0.20186533 0.16020298 -0.06639236 -0.36866245
0001a0 c9 94 7c 3f 66 98 53 3e 68 b4 e1 bd cc 8a 27 be
       0.9866453 0.20663604 -0.11020738 -0.1636154
0001b0 f6 d5 b3 3e 36 27 f9 be 7c dc 60 3e fa de f0 be
       0.35124177 -0.48662728 0.21959108 -0.47045118
0001c0 e2 87 07 3d 93 e8 34 be ae e9 af be 43 4e a1 bd
       0.033088572 -0.17666845 -0.3435797 -0.07876255
0001d0 61 3a f8 be aa d5 0e bf 8c 02 0a bf 98 46 94 3d
       -0.4848204 -0.55794775 -0.53910136 0.07240027
0001e0 ca c4 97 be a2 0b d0 be ce 29 da be 00 6c 28 3a
       -0.29642326 -0.40633875 -0.4261002 0.00064247847
0001f0 ea b4 10 be 60 6e 06 bf 32 6f ac be 72 ee 95 be
       -0.14131513 -0.5251217 -0.33678585 -0.29283482
000200 30 e9 57 bd bf a1 33 3f a2 d5 04 be b7 bc ec 3e
       -0.05271262 0.7016868 -0.1297212 0.46237728
000210 c2 2f 85 3e 48 ee 19 be 9c c4 24 3e ba 31 bf be
       0.26013 -0.15032303 0.16090626 -0.37342626
000220 68 80 76 be a0 8d bb be 14 53 32 3e 1c c2 be be
       -0.2407242 -0.3663149 0.17414504 -0.3725747
000230 32 78 a2 be 60 c9 08 bd a3 86 2c 3f d7 6c f2 be
       -0.31732327 -0.03339517 0.6739294 -0.47348663
000240 c3 19 82 be 0d e2 8f be 9a 0f 0d be 09 51 f9 bd
       -0.2541028 -0.2810215 -0.13775483 -0.12173659
000250 0a 66 b6 be ca 2c f1 be 96 6e 54 3e ba f2 66 be
       -0.35624725 -0.47104484 0.2074531 -0.2255353
000260 2a 55 71 be 17 25 e2 3e 58 b5 36 3e da 78 ea 3e
       -0.23567644 0.44168922 0.17842615 0.45795327
000270 26 9a e0 be b3 b1 d3 be 10 aa 40 be 0d dc 0f bf
       -0.43867606 -0.4134651 -0.18814874 -0.56195146
000280 3e d0 62 3e a4 57 5f 3e 07 51 fe 3c ea 23 9b 3e
       0.2214975 0.21810776 0.031044496 0.30300838
000290 32 56 ba bd 38 08 3b be 1b b5 da 3e 9a 6f bd be
       -0.09098472 -0.18264854 0.42716298 -0.36999208
0002a0 49 10 68 3e 52 c8 19 bd 3c 49 48 be 43 10 ba be
       0.22662462 -0.037544556 -0.19559187 -0.36340532
0002b0 52 39 b2 3e 4d b4 13 3e 62 c9 69 be 46 7e d5 3e
       0.34809357 0.14424248 -0.22830728 0.416979
0002c0 d5 e1 c4 be 7d 4b 21 3f 1d 4a f9 3e 5c 59 d1 3e
       -0.38453546 0.6300581 0.48689356 0.40888488
0002d0 4f de 0f 3f 4d 94 0a 3f 8b 5b 1b bf f0 cf 51 be
       0.5619859 0.5413254 -0.6068656 -0.20489478
0002e0 c6 43 c1 3e 2f ae 13 bf a8 aa 83 bd 9c ef f2 be
       0.3774702 -0.5768766 -0.064290345 -0.47448432
0002f0 20 60 0e be 7e 77 1a 3d 42 01 b5 be cb fc d7 be
       -0.13903856 0.037711613 -0.35352522 -0.42185053

FC.0.bias f4 [12]
000000 ca 93 82 3d 1f cc 8c be 53 c0 b1 3d 34 46 07 3e
       0.06375845 -0.27499482 0.08679261 0.13210374
000010 28 05 f3 3e ba 92 45 be 1e be 71 be fc c2 8b 3e
       0.4746487 -0.19294253 -0.2360768 0.272972
000020 8d d3 87 be 13 9f f0 3d 14 82 0d 3e 36 6c 4e bd
       -0.26528588 0.11749091 0.13819152 -0.050396167

FC.2.weight f4 [8, 12]
000000 15 a1 58 bf 78 99 f1 3d c5 d9 2c be 1e da 3d 3f
       -0.8462079 0.1179685 -0.16879947 0.74160945
000010 8c 48 84 bc 3f ac 47 3e dc eb 38 3e c5 e5 2b 3f
       -0.016147874 0.194993 0.18058723 0.67147475
000020 00 a1 4e bf 5f cb 8a be 8e 74 e8 3e 5d 32 33 bf
       -0.80714417 -0.27108285 0.45401424 -0.69998723
000030 0f f9 89 3e 60 7f 51 bf 94 38 1d bf a1 39 41 3f
       0.2694783 -0.81834984 -0.61414456 0.7547856
000040 58 0f d7 3e 3b b1 e5 3d 65 29 0c bf 41 ad 1f bf
       0.42003894 0.11215445 -0.54750663 -0.6237374
000050 fe da 86 3e d9 d0 53 3f 4a cb cd 3e 49 fb 1d bf
       0.26338953 0.8274055 0.4019416 -0.61711556
000060 4a 1d 1c bf 46 ac 06 be cb 82 0b 3f d5 70 67 bc
       -0.6098219 -0.13151655 0.5449645 -0.014126022
000070 8f a5 30 bf 0b 70 08 3f 0b fe 92 3d 9a 20 6c be
       -0.6900262 0.53295964 0.07177361 -0.23059312
000080 7c 9b e8 be 71 d3 0f bf 1d 43 7b 3e a0 6f 58 be
       -0.45431125 -0.5618201 0.2453732 -0.21136332
000090 49 0b 81 3e c5 9b f7 3e 88 a2 d0 be 19 69 e3 3e
       0.25203922 0.4836103 -0.40749002 0.4441612
0000a0 f8 ce 19 3f b0 ad 07 bf a7 8c 23 bf bd 6a 83 bd
       0.60081434 -0.529994 -0.63886493 -0.06416843
0000b0 43 97 98 be 77 7f b9 3e 75 4a 03 3f 0e 0e 55 be
       -0.29802904 0.3623006 0.5128549 -0.20806143
0000c0 0a d5 2f be 5b f2 e9 3e df 84 e7 3e 5c 85 1a be
       -0.17171112 0.45692715 0.4521856 -0.15089935
0000d0 9e 87 44 bf e6 3a 03 3e 07 ac df be f9 42 54 be
       -0.76769435 0.12815437 -0.43685934 -0.20728673
0000e0 fe ce 28 3f c7 95 22 bf ff cf 05 3f b2 8e 39 bf
       0.65940845 -0.6350979 0.522705 -0.7248336
0000f0 fe 93 43 3f 4b fb 91 be d4 08 d2 3e a0 20 89 3e
       0.76397693 -0.28512034 0.4102236 0.26782703
000100 87 85 1c bf fb 81 91 bd ac 8d 48 bf 1f b6 4d 3f
       -0.61141247 -0.0710487 -0.78341174 0.8035602
000110 0b 7f ce bd 3d cb 44 3e 21 45 4c be d0 22 22 3f
       -0.10082825 0.19218154 -0.19948246 0.6333437
000120 a2 53 69 3e 30 76 50 be a5 67 43 3e a1 02 40 3f
       0.2278581 -0.20357585 0.19082506 0.7500401
000130 39 9b 9a be e6 75 3f bf 6a 03 2a bf d9 b4 2e bf
       -0.3019655 -0.74789274 -0.6641146 -0.682447
000140 79 d7 8e be 6b 82 38 3f e9 9f 13 3f cf dd 22 bf
       -0.27898768 0.72074 0.5766588 -0.63619703
000150 22 39 de 3e c9 d1 17 be 04 34 f1 3e 85 43 87 3e
       0.43402964 -0.1482612 0.47109997 0.264187
000160 06 85 2b 3f b3 ed 01 3f 8f a1 3d 3e 0f 8f 85 be
       0.6699985 0.50753325 0.18518661 -0.26085708
000170 1d 59 32 3f 5c f2 04 bf 4e 42 cf bd 8e c7 51 be
       0.69667226 -0.5193231 -0.101200685 -0.2048628

FC.2.bias f4 [8]
000000 2c a4 25 3d c6 3b a2 3b 84 a0 90 be ce de 65 be
       0.04043977 0.004950973 -0.28247464 -0.22448274
000010 58 e1 d4 3e 4f 78 d8 3e 2b 4c 29 3d 5b 4e db 3d
       0.41578174 0.42279288 0.041332405 0.107083045

FC.4.weight f4 [4, 8]
000000 72 d8 64 bf 47 f1 bd 3d 38 25 db be c3 4d 87 be
       -0.8939277 0.092745356 -0.42801833 -0.26426515
000010 2c c8 1e 3f c9 b4 8a be 60 de d4 3d e0 04 bc bd
       0.6202419 -0.27091053 0.10393977 -0.09180617
000020 ce e5 d9 3e 0f 41 92 3f 49 61 49 3f 22 4b ec 3d
       0.4255814 1.1426104 0.7866407 0.11537768
000030 00 b8 16 bd 72 1f 8d 3f 48 4b 1b bf 34 e6 c8 be
       -0.03679657 1.1025221 -0.60661745 -0.3923813
000040 fa c0 09 bd e5 bb 54 3e 9a b3 12 bd 37 62 24 be
       -0.033631302 0.20774801 -0.035815813 -0.16053091
000050 31 2a bd 3f 74 3c db be 2e c7 57 bf 80 b2 50 3f
       1.4778501 -0.4281956 -0.842883 0.8152237
000060 1e 68 5b 3f 78 03 14 be 92 64 82 be 4b 03 72 bf
       0.85705745 -0.14454448 -0.25467354 -0.94536275
000070 fb ec 39 bf 79 3d a8 3e 37 f5 2d 3f 51 4e 85 3e
       -0.7262723 0.328594 0.67952293 0.26036313

FC.4.bias f4 [4]
000000 6f 0c 5b 3f 04 b2 71 bd b3 59 57 3e a4 5c e9 3e
       0.8556585 -0.05900766 0.21030311 0.45578492
