models/Continuous/HalfCheetah-v4/NAF/final_weights_NAF_HalfCheetah-v4_1500.pth (torch, 311155 bytes, 17 tensors)

shared.net.0.weight f4 [256, 17]
00000000: 6862 ad3f fab4 83be 2238 983f eaf0 28bf
00000010: 02ee be3e 7e04 6dbe a15f c6be 37f5 ae3e
00000020: 1802 40bf be19 83be 48e0 85be c2f8 f23d
00000030: 4a31 a4be 45d3 9c3e 4f4c 84bd d0c4 35bd
00000040: 8a0c a5bd 4dbe 23c0 1793 b03d cee5 903e
00000050: 61fe 4c3f edfb 0dbf 0c1b e23d 6001 403c
00000060: 90a6 353f e344 413f 568d 10bf 8c2c f73d
00000070: d8e4 83be 9a0e dfbe 247e bf3d f28c c13d
00000080: ae23 673e 8437 013d 3f78 cf3f a939 003f
00000090: 8016 663d f755 1ebf a777 4a3e 52d8 bc3f
000000a0: ff70 bdbf daaf 47bf 4c7d 57bd 5c8e b33f
000000b0: 8531 b03e dcb1 7dbd 593b 82be 41b4 533e
000000c0: e7a9 f6bd 999e 1dbd 0f56 25bd 1d3f 803e
000000d0: 2754 ebbf 83c7 463f 315d 75bd 7b67 96bf
000000e0: 1b3a 893f aa3d f6be 060a 97bf b5a1 7a3f
000000f0: b0ad 643f fea3 183e 164b bd3d 3e63 aabe
00000100: 3f08 843e 76e3 523d 731d 4dbd 67c9 d338
00000110: 298c e33c 3758 2cbe 9ec8 04bf ac8f 0f3e
00000120: 17ff 003f 6fc5 3140 443a 51bf 5210 d9bf
00000130: 9256 203f 5907 6dbd 83eb f33e a509 9abd
00000140: d771 503d 96aa e53d 2a15 d23c 8b24 58bc
00000150: fcdb 193e 4106 d6bf 7a45 1fc0 dca2 293e
00000160: 1b67 e73f b599 283f 1313 d2bd 1504 6abc
00000170: 59d9 683f 0c0d 0dbf 7845 1d3f bb2a 12bf
00000180: 0c23 09bd 2cfe 03be 72bd e0bc 75d4 ad3d
00000190: 308e 8d3c bf17 37b9 03a7 0140 b382 fabe
000001a0: d017 2ebf 84b6 1ebf 382f 23bd 637b 833f
000001b0: 7fa7 873f 7e86 9c3f b98b d03b bd72 843e
000001c0: dcc0 183f b3e7 cebd c85e db3c ce7b 3c3d
000001d0: 064f 1c3e 0002 6e3e 836a ee3d 7eca 4d3e
000001e0: 8910 953f 45f3 eabf 638f 363f c7c2 3cbf
000001f0: f72e a03a 252e c2be acf2 4d3f fbdc 8ebe
00000200: 528b 63bf 15f8 95bb 38ef 6abd 5fc9 c13d
00000210: 4803 0d39 4b3b 98bd 4faf c63c 5fe4 293d
00000220: 6f35 2a40 aa04 08c0 fa7d c03e 9414 a6be
00000230: 980b 273f 3415 b23d 8d04 cebe f692 d2be
00000240: 3432 aebe 8b72 bbbe 5aa3 cabe 4b81 ef3d
00000250: dd9d 16be f40e 133e fe42 f03b 57f3 17bd
00000260: 4482 d6bd 16fc a5be f9a5 20be 1c75 33be
00000270: 3d1a 5cbd bdc5 703d 0e22 80be 9b2f 8e3f
00000280: be9f 963f 5c3d d73e b366 3dbf e1b6 35be
00000290: bcc8 da3e 7132 04be 2411 183e 3c14 303e
000002a0: e723 1d3d 9eaf 88be 8c37 0b3f 85f4 623f
000002b0: 78a5 b83c 6452 9f3f d536 8abf fe7e 4bbf
000002c0: 1d92 533f 02bd 65bd a57e 023f ba3c 513f
000002d0: 6f41 0c3f 0efb 673e 4fde 5abe 7da2 22bd
000002e0: 135c 393e 7139 1a3d 4dea 75be e963 ccbe
000002f0: f0cc bebe c9c8 36be 1167 99bf f679 e9be
00000300: 6863 adbf 303d e4bf 0b05 8bbf d454 ea3d
00000310: e761 3d3f e264 46be 5675 3dbe 750f 1f3e
00000320: 45ce 98bd 5a91 92be 65ac fd3d 1ef6 1abe
00000330: 0fac c73e 85b6 19c0 c804 963f 0019 a63c
00000340: a8d5 793d 4fe2 f2be 8e3f b43d 5ff3 cd3d
00000350: e0b4 993e e15f 85be c977 c4be f949 80be
00000360: 9c15 1abe 461b 063b 1075 153d fb61 ebbc
00000370: 1439 87bc 67f4 40c0 4e41 29c0 e3ba e0bf
00000380: 07a4 5abf 70c7 e6be 3af5 3dbd bad4 e93d
00000390: 3349 843c fdd5 98bd 4e19 0fbf 1bd1 35be
000003a0: 3b78 b23d d4a9 18bc 048f 5f3c e7ed 05bd
000003b0: 9ee4 96bc 04fa 2b3a ca76 08bf 34be 433c
000003c0: 5e44 2cbe d21e a0bf 646c 63bf 57f1 423e
000003d0: f217 44bf 1764 70be c9df fa3e 13ca 1cbf
000003e0: e885 193f 0e23 433e 81e8 ccbd 5fea 7fbe
000003f0: 8881 3f3e e12b 54be a824 1a3e 07af 893f
1.3545656 -0.25724012 1.189213 -0.65992606 0.3729096 -0.23146245 -0.38744834 0.3417146
-0.75003195 -0.25605577 -0.26147676 0.11863853 -0.32068855 0.30629936 -0.06459867 -0.04437715
-0.08059032 -2.55849 0.08621805 0.28300327 0.8007565 -0.55462533 0.11040315 0.011719078
0.7095728 0.7549574 -0.5646566 0.120690435 -0.2576053 -0.43565828 0.09350231 0.09450711
0.22572204 0.031547084 1.6208571 0.5008798 0.0561738 -0.6184992 0.19772206 1.4753516
-1.4800109 -0.78002703 -0.052609727 1.402782 0.3441278 -0.061937198 -0.25435904 0.2067423
-0.12044125 -0.03848133 -0.040365275 0.25048152 -1.8385056 0.7764818 -0.059903327 -1.175033
1.0720857 -0.4809392 -1.1799934 0.97902995 0.89327526 0.14906308 0.09242837 -0.3327884
0.2578754 0.051486455 -0.050076913 0.00010098778 0.027776795 -0.16830526 -0.5186862 0.1401965
0.50389236 2.7776754 -0.8172953 -1.6958106 0.62632096 -0.057868335 0.4764062 -0.07521371
0.050889816 0.11214177 0.025644857 -0.013192306 0.15025324 -1.6720659 -2.4886155 0.16566032
1.807834 0.6585954 -0.10257544 -0.0142832 0.90956646 -0.5509803 0.61434126 -0.5709645
-0.03348069 -0.12889928 -0.027434085 0.084877886 0.017279714 -0.00017461086 2.0258186 -0.4892784
-0.68005085 -0.61997247 -0.039839953 1.027203 1.0597991 1.2228544 0.0063643125 0.25868788
0.5966928 -0.10102787 0.026778594 0.046016507 0.1526452 0.2324295 0.11641409 0.20096776
1.1645671 -1.835549 0.7131254 -0.73734707 0.0012221028 -0.3792583 0.8044841 -0.2790297
-0.8888446 -0.004576693 -0.057357043 0.094622366 0.0001344803 -0.07433184 0.024253516 0.041477557
2.6595113 -2.1252847 0.37596112 -0.32437575 0.65252066 0.086954504 -0.40237847 -0.41127747
-0.34022677 -0.36610827 -0.39577752 0.116945826 -0.14708658 0.14361173 0.007332205 -0.0370973
-0.10474065 -0.3241889 -0.15688314 -0.17525142 -0.05373596 0.058782328 -0.25025982 1.1108278
1.17675 0.42039 -0.7398483 -0.17745544 0.42731273 -0.12909867 0.14850289 0.17195219
0.038364317 -0.26696485 0.5438163 0.8865436 0.02253984 1.2447019 -1.0797983 -0.7949065
0.82644826 -0.056088455 0.50974494 0.81733286 0.54787344 0.22654364 -0.21373866 -0.039705742
0.1810153 0.037652437 -0.2401516 -0.39919975 -0.3726573 -0.17850031 -1.1984578 -0.4560086
-1.3545961 -1.7831173 -1.0860914 0.11441961 0.7397751 -0.19374421 -0.18501791 0.1553324
-0.07461218 -0.2862652 0.12386397 -0.15132949 0.38998458 -2.401765 1.1720209 0.020275593
0.060994774 -0.47438285 0.088011846 0.10056185 0.3002081 -0.26049712 -0.3837264 -0.25056437
-0.15047306 0.0020463034 0.036488593 -0.028733244 -0.01650671 -3.0149171 -2.644611 -1.7557033
-0.85406536 -0.45074034 -0.046376444 0.114175275 0.016148185 -0.0746269 -0.55897987 -0.17755549
0.087143384 -0.009317834 0.013644937 -0.032697584 -0.01841956 0.00065603876 -0.5330626 0.011947203
-0.16822955 -1.2509406 -0.88837266 0.19037376 -0.7659904 -0.23475681 0.4899886 -0.6124584
0.5996995 0.19056341 -0.10005284 -0.24991749 0.18701756 -0.20719863 0.15053046 1.0756539

shared.net.0.bias f4 [256]
00000000: 6192 af3e 7716 3c3e 00ac b8bc 9228 643e
00000010: 628d 3dbd d0ab 1e3f e329 a53e 1c8b 483e
00000020: fc0c b7be e4ed eebc 80e3 383e 5f20 923b
00000030: 3651 5ebe 3282 f1be 24e4 693e 164c b2be
00000040: e506 f33e 32e1 01bf bbbc d73a 3564 6f3e
00000050: 0f53 d73e 8147 08bf bb19 ac3b 7c17 ab3d
00000060: 3391 5c3e 062a f33d 2fff 793e ac4e d7bd
00000070: cc99 61bd 2e95 bc3e 2b68 873e 32df cf3e
00000080: a8b0 95be 9d0a 86be d031 f33e b7ef 343e
00000090: 5e3d 9e3d acd5 10bf 2b31 fb3e 94d7 533d
000000a0: 7041 3b3e ceb7 0cbf 00f3 7839 2f21 193e
000000b0: 3c7e 0a3e 31fd 803e 09c0 58bd ddc0 5c3c
000000c0: 4bd0 88bd 4b60 10bd 737e da3b 3f19 7b3d
000000d0: 77b0 04bf 4f47 2a3e e6e5 d7be 671b ccbc
000000e0: 0345 c63e 0af3 633e 86bd b93d d3dd 87be
000000f0: fb37 28be 670c ce3c b247 f8be a3fe 093e
00000100: 53b9 993d 9d93 fa3e 8884 e5be 5b38 04bf
00000110: f992 fa3e 91a2 9c3d 4f55 4ebc b409 06bf
00000120: f917 07be 1358 8e3e ca08 f43e 6376 0bbc
00000130: bd59 51be 0898 5bbe c4d8 1dbe 5ac9 2abe
00000140: c410 96be 0e6a a63c ef00 e13d 268b 4bbe
00000150: 5852 743e 42d9 963e e2a3 cdbe c3c8 28be
00000160: 466c 0d3e 3175 8cbe faa9 593e 3ecc a7be
00000170: 8e8a 8a3e d666 5b3d 0500 bd3d cfb8 0d3f
00000180: 5053 32bf 6a85 42bd 2f79 4a3e 7f01 cdb8
00000190: 5449 043e bfa3 c53c 6a1f 6c3e 8fa7 0b3d
000001a0: 2493 ec3b f644 743e a218 233e 9283 da3d
000001b0: 1921 2a3e 3cd9 3dbc 0c30 90be 9999 18bf
000001c0: 40ea 83be 9227 9f3d 8f4a 0a3e c9ad a9be
000001d0: ada6 cd3e ebb0 023e 9b56 263e 24c9 8dbe
000001e0: fe6e 623e d5c9 983e 8e09 173e 9395 9bbe
000001f0: 7f73 6a3e c913 50bd a035 0b3f fb48 3bbe
00000200: 78e1 a23e 538f 2bbe b9a5 88bd a2f1 a93d
00000210: 0f8b 403e 5e94 973e 3cd5 1ebf 606e b53e
00000220: e359 b83d f9f5 edbd 56c1 98be b49b b3bd
00000230: 469c 4ebd ff8b bb3e 32af 5cbc 81cb 9abc
00000240: 81f6 363e c4e5 ee3e 2d0e eebe bfc5 bfbd
00000250: 0fe2 553e 2901 7e3e 15b1 bdbd 1c25 133f
00000260: ba72 623d a829 ac3e 8123 9ebd bf93 2c3e
00000270: 4947 c83d b210 923e 018d 7dbe 1eaf e13c
00000280: 149b 103c 3d8f 6d3e 1b84 2ebe 2399 19be
00000290: 5cac 153e 644e 153e 93c2 ad3e 400a 0ebe
000002a0: 7b77 34bf 0561 c43c 9360 ab3d d251 733c
000002b0: 5952 b6be 47a0 ddbe 6c53 863e e0e7 323e
000002c0: d388 9bbd ee4b 41bf e36a 45be c279 843e
000002d0: 8cad 16be 650d 58be 9e42 b93c 4f90 103f
000002e0: 98e0 cbbe 386a fbbe c3f4 29be e56a 593c
000002f0: 3d43 e5bc a7ea ffbe bdec cc3d 77a3 9e3e
00000300: fa9a d83e b7f8 5dbe 27a7 d7be 3d56 65bc
00000310: 1316 0ebe 2b07 d13e f3dd 493d 9b01 a3be
00000320: 792d abbe a7af 923e 152a 33be d604 b33d
00000330: 1147 013f 5893 d53e df91 b53e 565e e63e
00000340: 03ba 043e 68e5 3ebe e589 0f3e c55a e2be
00000350: fe95 b0be e602 debe 7cdc 32bc b762 94be
00000360: cbfe 373f 5da8 22bf ef71 d8be ca1a 9fbc
00000370: 0cac 8a3d b6c8 953d 4bb9 ed3e f79e 583e
00000380: 42cc 97bb bbe3 26be 854f 9f3e a6e5 1b3e
00000390: 4884 ac3d d562 243e 28fa 9bbd 9163 c93e
000003a0: 8593 f63d 0f2a ae3d a3f2 073e 9cc0 0c3d
000003b0: c3ff 883e 9b35 bfbc f1de bebe 323c d33d
000003c0: 5e58 253e 947e d0be f01a 10bf 1695 233e
000003d0: f472 a5be 9091 203e 1c2c 0b3f dc8a b9bc
000003e0: e4a2 2b3d 6350 84bd b858 f13e f8e1 193e
000003f0: 5c96 883e f367 19be 2a69 473f 14bc e73c
0.34291366 0.18367945 -0.022542953 0.22281101 -0.04627741 0.61980915 0.3225852 0.19584316
-0.35752094 -0.02916617 0.18055534 0.0044594253 -0.21710667 -0.47169644 0.22840935 -0.34823674
0.47466198 -0.50734246 0.0016459444 0.2337807 0.42055556 -0.53234106 0.0052520907 0.08354089
0.21539764 0.1187325 0.24413751 -0.10513052 -0.055078313 0.36832565 0.2644666 0.40599972
-0.2923634 -0.26179972 0.4749894 0.17669569 0.077265486 -0.5657604 0.4906095 0.051719263
0.18286681 -0.54967964 0.00023741648 0.14954065 0.13524717 0.2519317 -0.052917514 0.013473717
-0.06680354 -0.035248082 0.006667906 0.061303373 -0.51831764 0.16628765 -0.42167586 -0.02491541
0.38724527 0.22260681 0.09069352 -0.26536426 -0.16427605 0.025152398 -0.484922 0.13476042
0.07506051 0.48940745 -0.44827676 -0.5164849 0.48940256 0.076481946 -0.012593581 -0.52358556
-0.13192739 0.2780157 0.47662956 -0.008512112 -0.20444389 -0.21444714 -0.15414721 -0.16678372
-0.29309666 0.020314243 0.10986506 -0.198773 0.23859537 0.2946263 -0.40164095 -0.16482835
0.13810834 -0.2743316 0.21256247 -0.32773012 0.27058834 0.05356487 0.09228519 0.5536012
-0.69658375 -0.047490515 0.1977279 -9.7754404e-05 0.12918597 0.024125932 0.23058859 0.034095343
0.007219689 0.23854432 0.15927365 0.10669626 0.16614188 -0.011587437 -0.28161657 -0.5960937
-0.25764656 0.07771219 0.13505004 -0.331404 0.40166226 0.12762801 0.16243975 -0.2769252
0.22112653 0.29841486 0.14749739 -0.30387554 0.22895621 -0.05080012 0.543787 -0.18289559
0.31812644 -0.16753893 -0.06672234 0.08298041 0.18803047 0.29605383 -0.6204412 0.35435772
0.090015195 -0.11619181 -0.29835004 -0.087699324 -0.050442003 0.36630246 -0.013469504 -0.018895866
0.17867471 0.46659672 -0.4649519 -0.09363889 0.20887016 0.2480513 -0.09262291 0.574785
0.055285193 0.3362553 -0.077216156 0.16853236 0.097792216 0.28528363 -0.2476082 0.027549323
0.008826036 0.23199172 -0.17042582 -0.14999823 0.14616531 0.14580685 0.3393751 -0.13871098
-0.7049481 0.023972044 0.083680294 0.01485105 -0.356097 -0.43286344 0.2623552 0.17471266
-0.075944565 -0.75506485 -0.19279055 0.25874144 -0.1471464 -0.2109886 0.022614773 0.564702
-0.3981979 -0.49104476 -0.16597275 0.013270115 -0.027986163 -0.49983713 0.10006092 0.3098409
0.42305738 -0.21676908 -0.42119715 -0.013997612 -0.13875608 0.4082578 0.049283933 -0.31837162
-0.3343313 0.28649637 -0.17496522 0.08741157 0.50499064 0.41713977 0.35462853 0.44993848
0.12961583 -0.18642199 0.14017446 -0.44209877 -0.34489435 -0.43361586 -0.010916825 -0.28981563
0.7187316 -0.6353815 -0.42274424 -0.019421954 0.067710966 0.07313673 0.4643043 0.2115439
-0.0046325037 -0.1629781 0.31115356 0.15224323 0.08423668 0.16053326 -0.07616073 0.39333776
0.12039856 0.08504116 0.13276152 0.034363374 0.2675763 -0.02334099 -0.37279466 0.10314216
0.1614699 -0.4072157 -0.56291103 0.1597484 -0.32314265 0.15680528 0.5436418 -0.022649221
0.04190339 -0.06460645 0.47138 0.15027606 0.26677215 -0.1498106 0.7789484 0.028287925

shared.net.1.weight f4 [256]
00000000: 35b6 ae3f 06b6 903f bd22 853f 5850 913f
00000010: ec58 893f 142d a33f f325 603f 0380 853f
00000020: a298 703f 0908 753f c234 203f 6d93 553f
00000030: 9a6f b33f f7a4 e13f ed0b 5c3f d2f2 343f
00000040: d407 813f 2525 b03f 8825 953f ef04 923f
00000050: e945 b03f 8259 0440 9dee 5e3f e328 8c3f
00000060: 5cb2 7f3f 233c d23f c285 763f 42d0 503f
00000070: d16d ae3f b3fd c03f e0ac d93f 43db 1540
00000080: 525e b63f 1aa6 dc3f 5486 523f 5022 fa3e
00000090: ecb0 9c3f 982c 873f 4ef3 103f 049a 1440
000000a0: be34 4b3f 1fd9 253f 8b14 653f 2779 893f
000000b0: 6e72 683f 0f78 5a3f 1655 953f 0d34 dd3f
000000c0: ab87 d93f 2792 0740 da57 e43f afb9 823f
000000d0: 495f ba3f df9e 533f df5a 373f 237a be3f
000000e0: 4627 bd3f da77 a23f a187 823f e52d 0d40
000000f0: d2cb c93f 85c4 8a3f 8e4c 383f 0f4d 3740
00000100: 30ea ae3f 57d9 7e3f d7b6 da3f 0f31 e13f
00000110: fc93 683f 9059 0e40 3948 0c40 48de 983f
00000120: 247e 813f e855 c13f 7d28 b63f 6907 873f
00000130: 155d 7e3f ca9e 623f d8ee 2040 abdc 943f
00000140: 71a4 9d3f cc45 1f40 646f 8f3f ec9c 2e3f
00000150: 4449 ab3f 7b73 6b3f 1c3e 3540 ed60 043f
00000160: 8358 d43f 2645 ba3f b961 2540 82f2 933f
00000170: f488 ab3f 0d46 873f e994 b33f a6b2 c73f
00000180: f0e3 623f dfa3 8b3f f254 aa3f 6ddd c43f
00000190: ea04 823f 66a4 bd3f 0c4f 233f 2def 6e3f
000001a0: 0842 5e3f e15b 8a3f 6355 753f b2f5 2b40
000001b0: a1fe 663f 1817 8d3f 0cb6 8b3f 13fc 433f
000001c0: e5a1 9e3f 2672 973f 4e0f 1e3f 58ee 843f
000001d0: 3baf 3f3f 7671 263f 1cfd ca3f 948e 1440
000001e0: 0906 3d3f f950 e63f 6541 d53f 69d9 833f
000001f0: 8f27 c93f 5e50 863f e300 8d3f c69c 903f
00000200: 0708 9a3f 7d6b e03f 5281 853f dc54 0f40
00000210: 4d14 613f 9ef2 363f c3b3 b93f b1f5 153f
00000220: 8244 863f aba9 8e3e 3386 8c3f d656 eb3f
00000230: ea34 683f a586 8d3f acda 623f 6bbb 273f
00000240: 0b94 143f 3503 be3f 6b2e b63f 50fe bc3f
00000250: 4225 cf3f 1eae e03f cecc 983f edec 983f
00000260: 6eeb 533f 1e91 8a3f 2fb6 963f dd03 243f
00000270: 8787 b63f 36e5 af3f 51cb 273f c633 753f
00000280: 7576 693f 7fd2 6d3f 80fb de3f b50d 3c3f
00000290: dcf0 0040 e4da 1b3f 44a1 873f 351c 883f
000002a0: 6f8b af3f 45a1 523f d40e c13f af81 a03f
000002b0: 12f4 623f 4d61 d83f bb31 6a3f 8475 5b3f
000002c0: bb71 823f 8943 d83f 29a5 563f a1e4 f53f
000002d0: c481 e63f fd31 883f 12b7 9b3f df8b bd3f
000002e0: c4c3 d03f 9778 4a3f 8652 563f 401b 923f
000002f0: 68be aa3f ad8c ac3f 75c8 8e3f 121c c13f
00000300: 3eea 7e3f aed4 533f a1fe 843f 160b 653f
00000310: c2cf fa3e b4a3 a13f b83a 6a3f 1901 653f
00000320: 34a2 b63f 9ead 6d3f fa1d b13f c360 7f3f
00000330: ba3d 8e3f 5e9e 993f e475 8f3f 5e3e 953f
00000340: 2455 843f 117d 763f eff2 d53f 42dd be3f
00000350: b1ae 663f 9cac 2540 a9ee 883f 65e0 993f
00000360: d9a5 a33f fe2a 4140 fd04 9d3f d281 683f
00000370: 335d 973f ed43 473f 9bf9 443f 1775 0b3f
00000380: 7409 9c3f d42e a13f 6106 543f 1540 e23f
00000390: 11df 863f 90cd f33f 6690 b33f 7552 283f
000003a0: 9797 663f 1ef3 9d3f 3a51 cb3f 761f f23f
000003b0: 7a13 9c3f 568b 6f3f d2e7 873f b570 303f
000003c0: 6b90 653f e7c3 6d3f c55e 8e3f 5200 1440
000003d0: 5d97 693f 5e2f fd3f 0b64 653f 820e 793f
000003e0: 8d3a 373f 2f59 cf3f b840 403f b7fc bb3f
000003f0: 1885 653f 9369 453f 6676 153f 41fd 5f3f
1.3649355 1.1305549 1.0401226 1.1352644 1.0730262 1.2748132 0.87557906 1.0429691
0.939829 0.95715386 0.625805 0.8342808 1.4018433 1.7628468 0.859557 0.70683014
1.0080514 1.3761336 1.1652079 1.1407756 1.3771335 2.0679631 0.87082845 1.0949978
0.9988153 1.6424602 0.9629785 0.81567776 1.3627263 1.5077423 1.7005882 2.3415077
1.4247534 1.723819 0.8223622 0.48854303 1.2241492 1.0560484 0.56621253 2.3219004
0.79377353 0.64784425 0.8948447 1.0740098 0.90799606 0.85339445 1.1666591 1.728151
1.6994528 2.1182954 1.783931 1.0212916 1.4560329 0.82664293 0.71623033 1.4881023
1.477761 1.2692826 1.0197641 2.2059262 1.5765326 1.0841223 0.71991813 2.8640783
1.3665218 0.99550384 1.7087048 1.7593096 0.90850806 2.2242165 2.1919081 1.1942835
1.011662 1.5104342 1.4231106 1.0549136 0.9936078 0.8852354 2.5145779 1.1629843
1.2315809 2.488635 1.1205869 0.68208194 1.3381734 0.91973084 2.8319159 0.51710397
1.6589512 1.4552352 2.5840895 1.1558383 1.340117 1.0568253 1.4029819 1.5601394
0.88629055 1.0909384 1.3307173 1.5380074 1.015775 1.4815795 0.6379249 0.93333703
0.86819506 1.0809289 0.95833415 2.686871 0.9023228 1.1022673 1.0914931 0.7655651
1.2393156 1.183171 0.61742103 1.0385237 0.74876755 0.6501688 1.5858493 2.3212023
0.73837334 1.7993461 1.6660582 1.0300723 1.5715197 1.0493276 1.1015896 1.1297843
1.20337 1.7532803 1.043009 2.2395544 0.879216 0.71463954 1.4507984 0.5857802
1.0489657 0.2786382 1.0978454 1.8385875 0.9070574 1.1056715 0.88614917 0.6552035
0.58038396 1.4844729 1.4232916 1.476511 1.6183245 1.7553136 1.1937501 1.1947304
0.8278111 1.0825536 1.1774348 0.64068395 1.426011 1.3741825 0.6554461 0.95782125
0.91196376 0.92899317 1.7420502 0.73458415 2.014701 0.60880876 1.0596089 1.0633608
1.3714427 0.8227733 1.508265 1.2539576 0.8865367 1.6904694 0.9148213 0.8572619
1.0190958 1.689561 0.83845764 1.9210397 1.8008351 1.0640255 1.2165244 1.480831
1.6309743 0.79090255 0.8371967 1.1414566 1.3339357 1.3480431 1.1154925 1.5086691
0.99576175 0.827464 1.0390207 0.8947004 0.48986632 1.2628083 0.9149585 0.894548
1.426825 0.92843044 1.3837273 0.9975702 1.1112587 1.2001455 1.1207852 1.1659658
1.0338483 0.96284586 1.6714762 1.4911273 0.9011031 2.5886602 1.0697833 1.2021605
1.2784988 3.018249 1.2267147 0.9082309 1.1825317 0.7783802 0.7694337 0.5447554
1.2190385 1.2592416 0.82822233 1.7675806 1.0536824 1.9047108 1.4028442 0.6575082
0.9007506 1.2339818 1.5884163 1.8915851 1.2193444 0.93571985 1.0617621 0.6892198
0.8967349 0.9287705 1.1122671 2.3125196 0.9124659 1.978008 0.8960578 0.9728776
0.71573716 1.6199092 0.7509875 1.4686497 0.8965621 0.7711422 0.58383787 0.8749581

shared.net.1.bias f4 [256]
00000000: 88ac bcbe 122c cbbe e488 adbe 8a2b edbe
00000010: 7d7f 15bf 2c1c 90bf 43f3 9abe 3166 64be
00000020: 051b 3dbe d1f8 b4be a2ba a3be 873b 08bf
00000030: 5cdc 91be 35bb 68bf 31ca 06bf 36e3 b6be
00000040: 5381 71be c877 d8be 9d0d a3be 90fe 07be
00000050: 95f4 1ebf 50c5 633d f251 8b3e 2c8b cc3e
00000060: c34f 0cbf a385 a13c f9c8 40bf e0db 863e
00000070: 32dd cbbc 1da2 6ebe f8ce 88bd 2739 d1bf
00000080: 3360 f3be ba63 57c0 bd40 c8be 9737 1e3f
00000090: 3d16 06bd 39bb 7abe 18e3 cebe 4167 1f3e
000000a0: ea98 d4be 5ca0 06bf 7568 c3be a61a 8c3d
000000b0: 8b2c 3abe a9cf 39bf d6e8 d3be edde 16bf
000000c0: a0ad ab3d b18a 153e 7d84 6bbe a6c7 07be
000000d0: e5a5 7dbe 265f 29bf 543a 20be 5cce d43e
000000e0: e2af d53d 9987 44bf 9e89 c03e 6b2e c43f
000000f0: 29d0 bdbc 5ef5 ecbe d4c8 f1be 23ad 44be
00000100: 7a26 3ebf edcb d1bd 8278 34bf 3b96 fb3f
00000110: 9f7a 13bf ea9e b93f c01c 223f c623 83bc
00000120: be81 12bf a65f aa3d 0e78 d3bd 61f9 51bd
00000130: b1be 26bf 5e61 e63c 56a6 853f 5a22 f2bd
00000140: 9752 a9be fa40 44bf 331a 61be 5b50 ed3d
00000150: 9790 78be 6f4c 74be f58a a1bd 4b76 a6be
00000160: fcd2 84be 307b bbbe 84c8 b83f 623e c1bd
00000170: 0292 28c0 9d9f 39be fb80 a5be 740c 3d3e
00000180: 1f9a 273e ae7a d9be 6898 133f 7ce9 c03e
00000190: cbc4 9cbe 6b20 dabe c88c 5dbe 1f6a 5f3e
000001a0: f1b8 c6be 2671 93bd 33bf 18be d423 a63f
000001b0: 9434 47bf 4fde 93be 9636 8fbe eafe 04bf
000001c0: 7dca 53bd 3c71 09bf 5767 443f c33d 22bf
000001d0: 7e5f 08bf c604 3cbf 1395 b23e 6347 15bf
000001e0: 4cec 21bf 31da 11c0 8578 173f 0314 863d
000001f0: 8ef5 58be 8578 34bf 0892 6cbf e5bd 023e
00000200: 7864 37bf 2d02 4bc0 f6f9 8fbd 5c42 fb3e
00000210: 23f0 afbe 9f5f f5be fdf7 bcbe de8b 9bbe
00000220: 999e b7bd f439 80be 004a d0be 053d 8dbe
00000230: 09a7 09bf 07ab 3ebf 15a0 44be b9d9 95be
00000240: 2cd6 d6be c4c4 bf3d 687a 8abe b1fd 3b40
00000250: 390c 2bbf 741d bb3f 9e27 89be 691e 40be
00000260: a68e 5dbf 36db 0cbf 95c1 49bf 2d4c ebbe
00000270: b404 babd 3a85 61be 8647 f2be cea5 33bf
00000280: f305 06bf b731 f1be d72d 9ebe a9c9 15bf
00000290: 0856 c63d e47a 3a3b 3371 12c0 a94c 1fbf
000002a0: aee7 2640 8424 77be 912f 863d 1d28 093e
000002b0: 11a6 bcbe 4d53 ea3e bf01 2fbf e210 78bf
000002c0: 1c87 bbbe bf69 9a3f e52f 1bbe da86 753f
000002d0: 213f e43e 860c 00bf d416 84be 77a9 eebd
000002e0: 8e74 833f fc72 d3be ab1d 86be d9af a3be
000002f0: 360e 863e 0761 1cbf a517 e5be df7d 2bbd
00000300: 5ca8 8d40 e100 f1be 1af0 c0be db66 69be
00000310: 5c5e 083e f5de 02bd e43e 29be 3639 4c3d
00000320: 617e 1f3e ae9d 47bf 3e03 bc3e eccd babe
00000330: 9ad1 2fbf e95a 89bf a51c c6be c627 903f
00000340: 0d53 0fbf cf2a 89be 8af6 debe 6c4b 823e
00000350: 64bb cebe ccc6 af3e 6ef9 563f b8eb 06be
00000360: 3ecf 17bf 14d3 d3bf f54e ecbd 3180 eebe
00000370: 130d d8be 0a9f 34bf 3331 a0bf 0d5d 18bf
00000380: e060 acbe c90b 33be 8372 16bf 4115 a0bd
00000390: 95dc 423d 22c7 803e fc8d 3cbf bb2f e5bd
000003a0: 92c5 bcbe 8b41 aebe f8b6 60be e6f0 40bf
000003b0: 861c ebbe 2ab1 17be 34f4 18bf bec6 c43e
000003c0: a0a7 12bd ddef 0c3e 1efb 38bf b40d c53f
000003d0: 8011 c1be 2dba 393f aac5 a6be 40dc fabe
000003e0: 4e84 32bf a43a e8be b058 cfbe ba6b 893d
000003f0: 6988 44bf 232a 1bbf 2538 c5be 65a9 17bf
-0.3685038 -0.3968206 -0.33893502 -0.4632228 -0.58397657 -1.1258597 -0.3026372 -0.22304608
-0.18467338 -0.35346082 -0.31978327 -0.5321583 -0.28488433 -0.90910655 -0.5265227 -0.35720223
-0.2358449 -0.42278886 -0.31846324 -0.13280702 -0.6209195 0.055608094 0.27210957 0.3994993
-0.54809207 0.019717043 -0.7530666 0.26339626 -0.024885748 -0.23304029 -0.06680101 -1.6345567
-0.47534332 -3.3654618 -0.3911189 0.61803573 -0.03273605 -0.24485482 -0.40407634 0.15566732
-0.41522914 -0.5258844 -0.38165632 0.0684102 -0.18181054 -0.7258249 -0.41388577 -0.5893391
0.08382726 0.14603688 -0.22999759 -0.13259754 -0.24770315 -0.6616081 -0.1564725 0.4156369
0.104339376 -0.76769406 0.37604994 1.5326666 -0.023170548 -0.4628095 -0.47223532 -0.19206671
-0.7427746 -0.10243974 -0.7049638 1.9655222 -0.5760898 1.4501622 0.6332512 -0.016008269
-0.5722922 0.08319025 -0.10325633 -0.051263217 -0.6513472 0.0281226 1.0441387 -0.11822958
-0.33070824 -0.76661646 -0.2198265 0.11587592 -0.24273907 -0.23857282 -0.07887832 -0.32512125
-0.25942218 -0.36617422 1.4436193 -0.09435727 -2.6339116 -0.18127294 -0.32324967 0.18461782
0.16367386 -0.4247641 0.5765443 0.37678134 -0.3061889 -0.42602858 -0.21635735 0.21817826
-0.38812974 -0.07199316 -0.14916687 1.2979684 -0.778146 -0.28880545 -0.27971333 -0.5195147
-0.05170678 -0.53688407 0.76720184 -0.6337549 -0.5327071 -0.73444784 0.3487936 -0.5831205
-0.63251185 -2.2789423 0.59168273 0.06546786 -0.21187422 -0.704964 -0.92410326 0.12767752
-0.7163768 -3.1720078 -0.07030098 0.49074066 -0.34362897 -0.47924516 -0.3690795 -0.30380148
-0.08965797 -0.25044215 -0.40681458 -0.27585617 -0.537705 -0.74479717 -0.19201691 -0.29267672
-0.41960275 0.09363702 -0.27046514 2.937359 -0.66815525 1.4618363 -0.26788038 -0.187616
-0.8654579 -0.5502199 -0.7881101 -0.45956555 -0.09082928 -0.22023478 -0.47320193 -0.7017487
-0.5235283 -0.47108242 -0.30894348 -0.58510834 0.09684378 0.0028454596 -2.2881591 -0.6222635
2.6078906 -0.24135023 0.06552041 0.13394208 -0.3684545 0.45766678 -0.6836204 -0.9690076
-0.36626518 1.2063521 -0.15154989 0.9590889 0.44579414 -0.5001911 -0.25798666 -0.116534166
1.0269945 -0.41298664 -0.2619451 -0.319701 0.26182717 -0.6108555 -0.44744602 -0.041868087
4.4268017 -0.47070983 -0.37683183 -0.22793142 0.13317245 -0.03195091 -0.16527897 0.049859248
0.15575553 -0.77974975 0.36721224 -0.3648523 -0.686792 -1.0730869 -0.3869373 1.1262138
-0.559861 -0.26790473 -0.4354747 0.25448167 -0.40377343 0.34331357 0.8397435 -0.13175857
-0.593006 -1.6548791 -0.11538497 -0.46582177 -0.42197475 -0.70555174 -1.2515014 -0.59516984
-0.3366766 -0.17484964 -0.5876848 -0.07816554 0.047573645 0.25151926 -0.7365415 -0.111907445
-0.36869484 -0.3403438 -0.21944797 -0.7536758 -0.459202 -0.14813676 -0.59747624 0.38432878
-0.03580439 0.13763376 -0.72258174 1.5394807 -0.37708664 0.72549707 -0.3257268 -0.48996162
-0.6973313 -0.4535724 -0.4049735 0.0671 -0.76770645 -0.6061117 -0.38519397 -0.5924285

shared.net.1.running_mean f4 [256]
00000000: 5d6f 24c0 b597 5540 0ccf 133e a731 9240
00000010: e628 3f40 5c4c 28c0 bf2f 343f 6fe8 8dbf
00000020: c24e ffbf 0b6d cf3f 6d2b 0140 08b7 a93e
00000030: 81a8 423f cfb8 5abf 7ca3 2e40 4d13 5bc0
00000040: 411c 873f 0bbc 0bbf f132 d03f 9092 a9bf
00000050: 9367 e73d 9da3 7ebf cf60 4840 842c e23f
00000060: fdc6 12c0 41c5 103f b805 5dbe d05b 733f
00000070: ff2a 02bf 002c b2be 1ebf df3f 110d c93f
00000080: 9468 02be 281e e13e 9a77 f93f b44a d940
00000090: 1e4b 0840 6f92 4bc0 31e6 bd3f a89d 5f3f
000000a0: 532e 7140 e123 5f40 6636 be3f f2b3 8140
000000b0: b0b4 dbbe 9fbf 8840 b9af 58c0 20aa 0d3f
000000c0: 13be 8bbf 562d 5139 1296 383f d62b 8f40
000000d0: a77c 32c0 2495 10c0 9c8c b0bf 1a00 823f
000000e0: 2029 823f bc68 cebf 88d8 8c40 42f3 15c0
000000f0: 8594 c1bd 1b6e 023f c52c 32bf b3e4 e03d
00000100: b8ca dabe e52c 1c40 6c5f 3cbf 4544 0a40
00000110: 7a2f cbc0 9286 3040 177e 58bc b519 8a3f
00000120: 848a 6e3f e8fa 2440 5334 923e 9392 7bc0
00000130: db86 85be 3e99 9b40 32d1 85bf 5ee2 d8bd
00000140: 6e27 f4be 7a48 f6bd 1bcc 903c 33c2 56bf
00000150: d136 d73f 3673 1cc0 dfbe 7f3f 60b4 5f40
00000160: 56d2 d3be f8c5 523f 5a57 7bba 8025 82c0
00000170: d269 9a3d 1267 0b3f a15e 883c 58ab af3f
00000180: 78b9 3140 e679 1cc0 92b7 5140 2a7d 9ebd
00000190: 4c8d 983f eee2 b7bf 38e7 efbf 8402 91c0
000001a0: 5e8e 0d40 41c3 bb40 0e8c 0440 3bf9 19bf
000001b0: 4bd0 ed3f 74aa 8cbf 269b bb3f 6db7 80c0
000001c0: c027 7b3f 72f2 3d3f 5b8a 6140 c33c 1abf
000001d0: d599 0b40 036a c53f f876 56bf 8577 e73e
000001e0: 4979 f7be 0dec 673e 06a8 3340 a7d3 b03f
000001f0: ca4a 7f3f 32ec 8f3f 367f 44c0 8550 8740
00000200: fea7 46c0 d576 22bc 1762 063f ec54 cb3e
00000210: a04f 8740 1e89 a440 cb3b 09c0 dde2 6a40
00000220: 7eef 99bf 86fa 0540 0ac2 9abe 34c8 533f
00000230: 8009 7640 c460 c5bd d2be cb3f 5d77 68bf
00000240: 9558 0740 5fcc 9240 be3b 173f 6b8f 78c0
00000250: 0b3d ed3a 3e87 82bf 04c3 5a3e 26df 863f
00000260: 327f 03c0 2264 9f3e b411 f0bf 256d 793f
00000270: 3ae2 e2bf 993b 973f 4d7b 8dbf 7f5b a4bf
00000280: edc7 03c0 7c2f ffbf c3f6 dabf 8b11 b2be
00000290: a5b9 09bd badb 0840 75bd 923f 56e4 bdbe
000002a0: c4ab 6f40 f490 b8bf d965 d03f a7c8 2ac0
000002b0: 8f4b 793f 0779 3a3f 25b6 98be a582 1fc0
000002c0: 96a2 aebe 0d67 53bf 1b40 30bf 788d 073f
000002d0: 05e2 ff3e 7e20 9c3e 0075 bebf 233a 2a40
000002e0: 2bfe d3bf b0ea debf b1a5 8bc0 8108 983f
000002f0: 7637 4abf 245f bebd 402d 893e 0ba3 93bf
00000300: 3218 0941 8f25 69bf 5dd2 a5bf 897a af3c
00000310: c349 c340 d602 3140 e0c3 c53f c9ac ec3f
00000320: 838d 17bf 8b31 ad3e 8e42 55c0 b6e2 02be
00000330: ff28 4c3f b7ae 99bf 260c efbf bd2d dd40
00000340: 793a 2440 0cc8 e23f d688 fb3e 5a66 dd3f
00000350: f298 00c0 1d2f e1bd 61b7 4840 bda4 7e40
00000360: e2e6 2840 8dc8 8b3f 370e b73f 6d6f 853d
00000370: 7d8f 0bc0 d0d0 bdbf 2daf e5c0 3a04 eb3f
00000380: 1724 893e e223 51c0 e658 6440 31bc bebe
00000390: abe8 4ec0 4829 21be 5537 1abf a29f b63f
000003a0: ff96 4640 3ea9 6dc0 dd55 27c0 6132 52be
000003b0: 1c1c 633f 76ac 7fbe 6a37 19bf a31d 76c0
000003c0: 789c 1abf c3dc 6d40 58a6 2ac0 8fcb 363f
000003d0: 4704 0ac0 6990 bf3e 44d7 6d3f fbc8 2b3f
000003e0: b0a1 aebf 1138 17bf 56b9 0e40 a127 cd3f
000003f0: 67a7 e33f 7e34 683f cf0c 3dc0 c970 2c40
-2.569297 3.3373845 0.14434451 4.568561 2.9868712 -2.6296606 0.70385355 -1.1086558
-1.994591 1.6205152 2.0182755 0.33147454 0.76038367 -0.85438246 2.7287283 -3.423053
1.0555497 -0.54583806 1.6265546 -1.3247852 0.11299052 -0.99468404 3.1309087 1.7669835
-2.2933953 0.56550986 -0.21584213 0.9506197 -0.50846857 -0.34799194 1.7480199 1.5707113
-0.12735206 0.4396832 1.9489625 6.790369 2.1295848 -3.1808126 1.4835874 0.8734994
3.7684524 3.4865649 1.4860351 4.053216 -0.4291129 4.2733912 -3.3857253 0.55337715
-1.0917381 0.00019948682 0.7210399 4.474101 -2.7888582 -2.2591028 -1.379291 1.0156281
1.01688 -1.6125712 4.401432 -2.3429723 -0.09452156 0.5094926 -0.6959956 0.10981121
-0.42732787 2.4402401 -0.735831 2.1604168 -6.3495455 2.7582135 -0.013213656 1.0789095
0.9318011 2.577814 0.28555545 -3.9308212 -0.2607945 4.8624563 -1.0454466 -0.10590051
-0.47686332 -0.120255426 0.01767545 -0.83890074 1.6813604 -2.444532 0.9990062 3.4953842
-0.4137141 0.82333326 -0.00095879065 -4.0670776 0.07539715 0.5445415 0.016646685 1.3724165
2.776945 -2.44494 3.2768292 -0.07738717 1.191812 -1.4366128 -1.8742437 -4.531557
2.2118144 5.8675847 2.0710483 -0.6014592 1.8579191 -1.0989518 1.4656723 -4.022391
0.9810753 0.7419807 3.5240695 -0.60248965 2.1812642 1.5422977 -0.8377528 0.45208374
-0.4833472 0.2264864 2.8071303 1.3814591 0.99723494 1.1243956 -3.0702643 4.228579
-3.1040034 -0.009916027 0.52493423 0.39713228 4.22847 5.141738 -2.1442745 3.6700966
-1.2026212 2.0934157 -0.30226165 0.8272736 3.8443298 -0.09637597 1.5917609 -0.90807134
2.1147816 4.5874476 0.59075534 -3.8837535 0.0018099857 -1.0197523 0.21363455 1.053685
-2.0546384 0.31131083 -1.8755403 0.97432166 -1.7725289 1.1815063 -1.1053253 -1.2840422
-2.0590775 -1.9936366 -1.7106556 -0.3477901 -0.03362431 2.138411 1.1464068 -0.3708827
3.7448587 -1.4419236 1.6281081 -2.6684968 0.9738092 0.72840923 -0.29826465 -2.492349
-0.34108418 -0.8257912 -0.6884782 0.5295024 0.49977127 0.3049354 -1.4879456 2.6597984
-1.6561941 -1.7415371 -4.363976 1.1877595 -0.78990877 -0.092954904 0.26792336 -1.1534132
8.568407 -0.91072935 -1.2954823 0.021420734 6.102754 2.765798 1.5450401 1.849023
-0.59200305 0.3382686 -3.3321872 -0.12781796 0.79750055 -1.2006444 -1.8675582 6.9118333
2.566069 1.77173 0.49127835 1.729686 -2.009335 -0.10995314 3.1361926 3.9788048
2.639092 1.0920578 1.4301213 0.065153934 -2.1806328 -1.482935 -7.177634 1.8360665
0.26785347 -3.267815 3.567926 -0.37252954 -3.232951 -0.15738404 -0.6024068 1.4267466
3.102966 -3.7134547 -2.6146157 -0.2052703 0.88714767 -0.24968132 -0.5985018 -3.845559
-0.60395 3.7165992 -2.6664028 0.71404356 -2.156511 0.37414864 0.92906594 0.67103547
-1.3643093 -0.59069926 2.230062 1.6027719 1.7785462 0.90705097 -2.9539068 2.6943839

shared.net.1.running_var f4 [256]
00000000: e82d 9841 2d64 c541 ec93 7e41 9b40 d641
00000010: 8c73 b940 85d4 bf40 621b 6841 c877 ed40
00000020: 6f62 3241 af97 6142 c5fc c241 4baa 8e41
00000030: 6dfd 9540 6bcb 4b40 d241 c541 fb8d db40
00000040: 29f0 8d41 4220 ad40 9348 0641 8174 2c42
00000050: fb43 9240 bb86 1e40 93de 0442 1cb9 dc41
00000060: 9f90 c740 c412 0840 9378 9f40 b203 e640
00000070: c93d 6c41 be69 e340 bd45 7741 8972 2f40
00000080: e105 3a41 f3f9 9d40 e18c 4b41 97fa 9441
00000090: de41 2041 32e3 5141 2cad 1741 d38e 0e40
000000a0: 0bf1 3341 6f15 e740 87bc b141 e8b6 6441
000000b0: a799 3f41 637e 6541 a015 f440 0727 9e3f
000000c0: 9ded 4c41 dde0 9540 4e12 3a40 18a8 1c41
000000d0: 67c6 3840 c557 af42 0298 9241 1baf 7340
000000e0: c57c e640 2c53 7540 244d 7e41 beff 7a40
000000f0: bd7a 5a40 c3ab 4c40 ff42 c240 004e 4c40
00000100: 5913 4040 bcde fc40 23c2 8a40 b7e1 b240
00000110: b47d a541 a1aa d440 d5f3 4040 8e25 7341
00000120: 6b23 0141 a2ed f740 dbab ee3f c313 8741
00000130: 6bfe 1540 500b 4541 2534 0240 ebbc 6141
00000140: 56dd 0341 485e c63f 5760 0141 c3dd 1841
00000150: 536b b341 a59a 2942 cf35 0940 0a36 7b41
00000160: 7ce1 2740 a1b9 ee40 6f53 1540 7628 c140
00000170: 32f8 4840 bb73 a840 46b2 c540 6378 1641
00000180: a954 7441 91cd 1441 c8e5 c441 e60b 0541
00000190: 4dee cf41 9d0d 2941 ce95 f041 7d22 3442
000001a0: 6e2d 3941 5e76 c941 96a3 cb40 bda5 8040
000001b0: 8f86 e440 4ac0 1841 61cd e641 f0a8 7e40
000001c0: dd90 9a40 8875 ad40 3c55 3841 9fef 9b40
000001d0: dea0 2f41 f176 3242 447b 3a40 3544 8a40
000001e0: 99d7 6841 ae90 db3f 6e19 a141 77ac 6440
000001f0: 72e2 8540 10eb 9d40 8ce4 7540 bd3d 5642
00000200: b350 e140 4f45 6540 2e0b bd40 690c 2840
00000210: f736 9441 65d4 5941 0891 9040 13b1 0141
00000220: 008f c241 ba76 0442 8295 9b41 385f 2b40
00000230: b47f e041 8274 e340 93ef dd41 1db3 7242
00000240: 9762 6b41 109c 5142 f993 cc41 d316 9e40
00000250: 8183 d53f 5ef7 d63f 5111 3141 6858 0a41
00000260: 4598 ff40 6f73 6b41 07a3 dc40 f227 3741
00000270: 9afd 0a41 b452 c040 869f 1e41 15a3 1e41
00000280: 8929 1741 d56b 6340 e26d a140 2586 2c41
00000290: 1f07 ba40 a7b8 4d40 188e d33f e1e4 b941
000002a0: 5cc4 1141 d600 0541 5dfd 7e41 9682 4441
000002b0: b710 7741 c5cb e240 626c be40 13ac f240
000002c0: 91c8 8540 fd68 8a40 e1c2 1a40 d74d 583f
000002d0: 2750 a440 0817 8b41 a9d4 f040 6fcf bf41
000002e0: 30de 0d40 e602 ab40 965e 8c41 6d31 8e40
000002f0: 658f ea41 2fd9 6140 1977 1e41 2c5d f440
00000300: d670 6b41 8d27 e940 c87f 8a41 e1d1 4f40
00000310: 3c22 3741 d8cb fb40 1560 8640 5d90 db41
00000320: c623 9541 4af1 6841 0a6f 7c41 8cf4 9640
00000330: 1447 7340 07ed 8840 9764 6740 8101 a041
00000340: 2caa 3c41 90f7 bf40 a737 5c40 f685 0042
00000350: a4d0 9441 a13a b33f 7ea5 1f41 569c 2a41
00000360: 45e7 9741 d9f8 1c40 76a0 a742 06e7 8840
00000370: b919 9f40 a92a 2d41 5eab 1741 db88 9341
00000380: d87c b041 d960 4041 90fc b041 0e67 c840
00000390: d03b 6041 303f 3841 db42 8e40 36d9 c241
000003a0: 41c5 3341 6995 0541 2ec1 8840 84c8 0c40
000003b0: 629d 6140 1c5a 6540 bf30 9140 41b6 db40
000003c0: f544 ae40 3bde 3f41 0567 aa40 e285 9740
000003d0: 2b0c 0b42 f4b4 c440 5ff4 f340 44fd f740
000003e0: 654b bf41 01e3 7140 4f3d 8140 7c89 9740
000003f0: 615a 0e41 d32f df41 6212 7e40 d931 ab40
19.022415 24.673914 15.911114 26.781546 5.795355 5.9946923 14.506685 7.4208717
11.149032 56.39813 24.373423 17.83315 4.687186 3.1842906 24.657139 6.8610816
17.742266 5.4101877 8.392718 43.113773 4.5707984 2.4769733 33.217358 27.590385
6.236404 2.1261454 4.9834685 7.187951 14.765084 7.106658 15.454526 2.7413657
11.626435 4.9367614 12.721894 18.622358 10.016081 13.117968 9.479778 2.2274673
11.246348 7.2213664 22.217054 14.294655 11.975013 14.343356 7.62764 1.235566
12.808011 4.683699 2.9073672 9.7910385 2.8871095 87.671425 18.324223 3.8075626
7.2027307 3.8332014 15.893833 3.9218593 3.4137414 3.1979835 6.070678 3.1922607
3.001181 7.9021893 4.3361983 5.590053 20.686378 6.6458287 3.0148823 15.196669
8.071147 7.747758 1.8646196 16.88465 2.3436534 12.315262 2.0344326 14.108623
8.241537 1.5497522 8.08602 9.554141 22.427404 42.40102 2.1439092 15.700693
2.6231375 7.46016 2.3332174 6.036189 3.1401486 5.2641273 6.178012 9.404391
15.270669 9.300187 24.612198 8.315405 25.991358 10.565824 30.073147 45.03368
11.573591 25.182796 6.363719 4.0202317 7.1414256 9.546946 28.850283 3.9790611
4.8301835 5.420597 11.520809 4.8730006 10.976774 44.616154 2.9137735 4.320826
14.552636 1.7153528 20.137417 3.5730264 4.1838923 4.934944 3.8420744 53.56029
7.041101 3.5823553 5.9076147 2.6257575 18.526838 13.614354 4.517704 8.105731
24.319824 33.115944 19.448002 2.6776867 28.062355 7.107972 27.74198 60.674915
14.71157 52.402405 25.572252 4.940286 1.6680757 1.679424 11.066728 8.646584
7.9873376 14.715682 6.894901 11.447252 8.686914 6.0100956 9.913946 9.914815
9.44764 3.5534565 5.0446634 10.78275 5.8133693 3.2143953 1.6527739 23.236757
9.110439 8.312704 15.936856 12.281881 15.441581 7.087374 5.9507303 7.583505
4.180733 4.325316 2.4181445 0.84493774 5.134784 17.386246 7.5259595 23.976286
2.2166862 5.344104 17.546185 4.4435334 29.320017 3.5288808 9.904077 7.6363735
14.715048 7.286078 17.312393 3.247185 11.445858 7.8686333 4.199229 27.44549
18.642467 14.558908 15.777109 4.717352 3.8012133 4.278934 3.6155145 20.000734
11.791546 5.99897 3.4408967 32.13082 18.601875 1.4002267 9.977903 10.663168
18.987925 2.4526885 83.8134 4.278201 4.97189 10.822915 9.479338 18.441824
22.060959 12.023644 22.123322 6.26258 14.014603 11.515427 4.445661 24.35606
11.235658 8.348977 4.2735815 2.1997385 3.525231 3.5836248 4.5372005 6.865998
5.4459176 11.9917555 5.3250756 4.735093 34.761883 6.147089 7.6235805 7.749666
23.911814 3.7794802 4.038734 4.7355328 8.897065 27.898352 3.969872 5.349835

shared.net.3.weight f4 [256, 256]
00000000: 6def e2bd 5318 483e bebe 23bf 80ba 273e
00000010: d4fa e8be 5c3b 773e ae04 033f a2c1 ac3e
00000020: 53ee e6bb 34b2 1c3f f082 6b3e 0e5a 533e
00000030: da08 a53e ffd6 c53e f21c 563e b7ba 08bf
00000040: 18c3 d23e aaae 973e a287 febd 633d a8be
00000050: fbcb 133f e063 88be 211b 213d 9d92 c43e
00000060: 00c6 0b3e 019a 4e3e d8a9 3c3e ca58 853e
00000070: 6631 ad3e 4861 213f e645 f53e 0b01 c63e
00000080: 81a9 c1be 3993 0cc0 1525 e93e a7f6 dc3e
00000090: ab84 913d 3e9e e73e be10 403f 391b b23e
000000a0: 9ff9 043f 0769 1b3e b83c 1c3e deb8 27be
000000b0: 95c5 9abe 8b9d 4d3e 8f41 cb3e 6c0a 35be
000000c0: 1d08 593e 2bc8 413f 8367 e53e 78ff 1c3e
000000d0: 9676 0dbe 7948 e53d c1dc 583e a524 df3e
000000e0: e1e2 ab3e 4880 c4bd 2fe7 2abe 91ff c13e
000000f0: f383 c6be 2ac1 6cbd 5cf1 a03e 3450 0f3f
00000100: f15c c0be 34c8 0a3e 7ab5 51bd ae57 9f3f
00000110: 91a5 04be be19 7d3e 59c1 79be 20b4 433d
00000120: 59cc c03e a8f8 303f 1a30 003f 2c60 8dbd
00000130: 68e6 033f 3170 813e e44e ee3e 77a1 993e
00000140: 0ca5 a6bd fbf3 cd3e d4bc e33e 0f91 2a3f
00000150: 2e7f cc3d 459b aebd 5077 eb3d 8e0b 373f
00000160: 2c6b 6a3e ee85 333e 2f57 353f f35f 963e
00000170: e21a b7be 4f79 fe3e eb20 d3bd a785 b23e
00000180: 576b 363f 63ee 08bf 90ac 37be df24 1c3c
00000190: 4520 993e 9323 be3e a3bb cbbd ee97 4b3e
000001a0: a5d2 203f d9ec bd3d 77ca a53e bd1f 5d3e
000001b0: 111f 8fbd c4e5 033f c9ca 753d d0dd 483e
000001c0: fb47 443e f5e1 cebe 2918 f93e 2529 a03e
000001d0: da0c f93e 88ea b8bc d1eb 733e 621c df3d
000001e0: f8cc a53e 9b36 b13e 6110 6bbe f446 b23d
000001f0: 9b72 ff3e 5d5d 563e 5c15 abbd a0f8 603e
00000200: c32e b6be 4bec 1ec0 be22 a4bd 5b8d 9fbe
00000210: 7e88 8e3d 0a13 d63e cc52 5d3e 3dde 593f
00000220: 56be 253d 60f2 473f a3f8 a2bd e355 aabd
00000230: 6070 e5bc e3a1 ef3e 8dc5 1a3e cc46 853e
00000240: 4afb 783e fa2c 00bd 1b30 2e3f a042 28be
00000250: 3bb9 833e ef3a 713e 1eba 1f3f b69e 593e
00000260: 7981 863e 4e3d 643e 7425 07bf 43d5 60bd
00000270: bc04 283d 4e5d fe3d e9a1 433e b2eb edbc
00000280: 1637 773e e5e3 073c c289 f83e 9624 233f
00000290: 0de5 fa39 0767 41be 9273 eabf 8eb7 d03d
000002a0: 5374 2e3f a283 38bc c981 2c3f d114 92be
000002b0: c83c c2be b2ae 613e 5dff 32bd 1a4f 94be
000002c0: 6eda cd3e be98 5cbd 3f72 233e 7e37 ec3d
000002d0: af8c a73e f6f8 bb3e 0caa 9e3e 25cb 1b3e
000002e0: ba81 a93d 6253 d6bd 9829 863e 9d6e a7be
000002f0: 7dfa 8abe 5fd0 36be 86bd 9dbe a226 e03e
00000300: 1fcf f33e c4ab a83e dae3 dd3c f46e afbe
00000310: b300 e43e 6d8a 003f 4f36 0ebe 98ab 283e
00000320: 696c 96bd 7c1d df3d 1ed4 b23e 798b a0be
00000330: 58e6 633e 8d20 d6be 839f 8d3e 70bb 6ebd
00000340: 0d7c c83d 84df 123f da4b 003f 01b3 1f3e
00000350: 6aa2 09be c136 613e 6ad9 a33e b356 8c3e
00000360: 9cbd 9e3e d501 cb3d fba6 aa3e 2072 11be
00000370: b03c b53e 6b05 5bbe 5a9b 90bd 57ae 9e3e
00000380: 5f3f c6be a6d7 af3e 38da 20bf 6398 7dbe
00000390: bcab 283e b945 aabe 4c7b e0bc 2147 0fbd
000003a0: 6a8a 5f3e c12c 4a3e 5f25 7f3e afea 2abe
000003b0: e2e0 f83d 9d47 203e 93ee e33d 1492 353e
000003c0: e446 90bd c140 053f 810c 4abe 5347 8c3b
000003d0: 8c2b a1bd 4c06 0c3f ddde cd3e 6503 d43d
000003e0: 14c9 d13e 9c1a ba3e 239a 053e fa35 363e
000003f0: 8954 f73d 507b c9bd 5c37 28bf 602d 633e
-0.11080823 0.19540529 -0.63962924 0.16379738 -0.45503867 0.24143738 0.51179016 0.3374148
-0.0070474534 0.61209416 0.22999167 0.20639822 0.32233316 0.38640592 0.2090948 -0.53409904
0.4116447 0.29625446 -0.12428214 -0.32859334 0.57733124 -0.266387 0.039332513 0.38393107
0.1364975 0.20175935 0.18424165 0.26044303 0.3382675 0.63039064 0.4790489 0.3867267
-0.37824634 -2.1964858 0.45536104 0.4315693 0.071053825 0.45237917 0.75025547 0.34786394
0.5194339 0.15176784 0.15257537 -0.16379115 -0.30228868 0.20079629 0.39698455 -0.17679757
0.21194501 0.7569606 0.44805536 0.15331829 -0.13814768 0.11195464 0.21177961 0.43582645
0.33571532 -0.0959478 -0.16689752 0.37890294 -0.38772544 -0.057801403 0.31434143 0.55981755
-0.3757091 0.13552934 -0.05119846 1.2448633 -0.12953784 0.24716851 -0.24390163 0.047779202
0.37655905 0.6912942 0.500734 -0.06903109 0.5152345 0.25280908 0.46544564 0.30006
-0.08136949 0.40225205 0.44480002 0.6662759 0.09985195 -0.08525709 0.114973664 0.71502006
0.22892445 0.17531559 0.70836157 0.29370078 -0.35762697 0.49701926 -0.10309013 0.34867594
0.7125754 -0.5348875 -0.17936921 0.009530275 0.29907432 0.37136516 -0.09947898 0.19882175
0.6282142 0.09273691 0.3238103 0.21594138 -0.06988347 0.5152247 0.060007844 0.19615865
0.19168083 -0.40406767 0.48651245 0.3128139 0.48642617 -0.02257277 0.23820426 0.108940855
0.3238294 0.34611973 -0.22955467 0.087049395 0.49892125 0.20934053 -0.08353683 0.21969843
-0.3558255 -2.4831722 -0.08014439 -0.31162533 0.069596276 0.418114 0.21613616 0.85104734
0.04046472 0.7810421 -0.0795758 -0.08317163 -0.028007686 0.46803197 0.15114422 0.26030576
0.24314609 -0.031292893 0.68042153 -0.16431665 0.25727257 0.23557638 0.6239337 0.2125195
0.26270655 0.22289011 -0.52791524 -0.054890882 0.04102014 0.1242014 0.19104733 -0.029043052
0.24142107 0.00829408 0.485426 0.637277 0.00047854372 -0.18886958 -1.8316519 0.1019126
0.68146247 -0.011261852 0.67385536 -0.28531507 -0.37936997 0.22039297 -0.043700565 -0.289666
0.4020571 -0.053856604 0.1596155 0.11534022 0.3272452 0.3671338 0.3098911 0.15214212
0.082766965 -0.10465123 0.2620361 -0.3270158 -0.27144232 -0.17852925 -0.30808657 0.43779474
0.47618958 0.32943547 0.027086187 -0.34264338 0.44531783 0.5021122 -0.13887905 0.16471708
-0.07344896 0.108942956 0.34927458 -0.3135641 0.22255838 -0.4182171 0.2766076 -0.058284223
0.09789286 0.5737231 0.5011574 0.15595628 -0.13440862 0.21993543 0.3200181 0.27409896
0.31004035 0.09912459 0.3333052 -0.14203691 0.35397863 -0.21388786 -0.07060881 0.30992386
-0.38720223 0.34344214 -0.62832975 -0.24765162 0.16471761 -0.3325632 -0.027402543 -0.034979943
0.21830145 0.19743635 0.249166 -0.16691087 0.12152268 0.15652318 0.11129489 0.17731506
-0.07044771 0.5205193 -0.19731332 0.0042809634 -0.07869634 0.5469711 0.40209094 0.1035221
0.40973723 0.36348426 0.1304708 0.17794028 0.12076671 -0.09837973 -0.6570947 0.22185278

shared.net.3.bias f4 [256]
00000000: cc91 afbd 0fa6 933d c35f 9ebe a262 a1be
00000010: ce12 82be a490 f23e cb36 77be a1fe 44be
00000020: 41f7 d6bd 536e 20be ce7a 04be 1348 33be
00000030: 4fee 46be d236 b2be d73b 953d f9c1 37bd
00000040: a0ba 2b3e 615d 803e 5b1a 4fbe 7c27 833d
00000050: 81c9 f53e fd07 c23d 23fb 73be cb29 8d3e
00000060: 503d f3bd 2d35 13bf 443b 0b3f 31ea 2d3d
00000070: 7761 f7be 8bf4 50be 50ce 733e a62e d2bd
00000080: 226a 8bbc 53ca a6bd 839b 1b3e c38c 75bd
00000090: 8637 d7bd add6 ae3d 23b2 483d 80b9 213c
000000a0: 5c34 1abb 515c 3a3e d9e5 123d 3c2d 4fbd
000000b0: 7751 3abd dd7d 8d3b 1842 4c3e 8da2 2a3e
000000c0: fe87 0ebf cdce 763e 55bd ae3e db77 453e
000000d0: fc21 c53e 8272 253e a6d4 0bbd 6062 1b3e
000000e0: f999 043e f60e 51bf 5699 b8be e627 37be
000000f0: 0aa7 6c3e c8f1 b83e fcb0 ae3e 098b 3cbe
00000100: 6ed9 87be 8cee 6ebe fd36 88be dc8d 0a3e
00000110: 5edb da3c 1ab1 e13b d5dd 003e a846 ae3d
00000120: 540a 2b3e 89b2 cabd 8a8d b93e 2da5 b03d
00000130: 028b 8b3e f38e f93e a945 7abd 842a ecbe
00000140: 6e55 7abf d83c 82be cdd0 063e 4e67 263d
00000150: 4cb4 b63d cf3e a1be 2ac1 9fbe d375 97bd
00000160: dad7 e0bd 7f1d dfbd 9ea8 63be 368e 9cbe
00000170: 2271 62bd e26f 023f bfb5 99be 7230 46be
00000180: 9202 803d ad34 083f 1ab1 053e 5492 9bbe
00000190: f3ee 3e3e fdcd 4c3e be4a 913d bc91 93bc
000001a0: 1c65 70bd d597 56be 41f1 193e 4447 30bc
000001b0: cebc a9bd ce6e 0f3d a604 823e e7ea 143d
000001c0: 28fe c6bd 9b34 343e 7b53 9e3e 0e00 0fbe
000001d0: bbe2 15bf 32d9 6b3e 624f aabe c6b9 4dbe
000001e0: 0110 b13d 6c72 6d3c 33c0 943e 1621 dfbd
000001f0: 08e6 febe 1749 163e 3b80 8cbc 2eab 91bb
00000200: 0bc0 99be 7efc dcbe 66ae 843d 4a4d 4cbe
00000210: 7a1b aebe 94df cfbe 37a2 aebe 2cd0 82be
00000220: bc0a 003d 0dba 533e 1faa a1be 4a0a 293d
00000230: 863d 77be b7d8 52be b38d 81bd 9f4d 243e
00000240: 0193 ecbc 3627 15bf 2593 323e 4440 b93c
00000250: afed 893e cb49 db3e fd81 bdbe c17a b63d
00000260: 0f55 78bd 2357 24be c444 9d3d 0741 f93e
00000270: a551 81be fa96 35be e611 f9be aade 6e3e
00000280: be55 95bb 73af 97be 669f dd3d 9faa ae3d
00000290: 5c76 36be b6fc 973e 043d b43d a3fb f23e
000002a0: 188e 2bbe 46a0 ccbe 3c99 0d3e 5747 813e
000002b0: 67d0 a2be d0ee fcbe 3314 30bc cf76 4abe
000002c0: a832 8c3d 27bf 923e e882 a1be b1da 783e
000002d0: d35c 1b3e 8bdb 863e 8c9e a03e 4063 ed3d
000002e0: 5266 8f3e 40d4 37bd 26bc 4abe a9b5 19be
000002f0: 0205 a63d 6e06 c0be f533 2f3e 3b61 14be
00000300: 502d 633d 3bcf 6cbd 1823 84be 3f15 1c3c
00000310: 46af 3c3e 5a1c c53d f6bb 983e cb61 0dbe
00000320: 8805 db3d e5ab 143f 7111 9abe e84d 623e
00000330: f4ee b1be e72a 1b3d a858 e73e b723 32be
00000340: b26f 1b3b 0197 393d cfef 833e 48da cb3e
00000350: df89 b8be d385 89bd 3093 10be d385 943c
00000360: a5ad c33e ed2d 65bd 0da9 413b e41e a23e
00000370: 1852 12bf 9237 943e effe a03d 4565 7fbe
00000380: 576d 90be 3ad3 2b3e df69 823f 2bee ccbd
00000390: 608c cc3e b433 463d ef9c 9a3e 17e9 15bd
000003a0: 9fe8 b6bd 906d 893c 4d36 43bb 55eb d8bd
000003b0: e589 33be 0d97 b03b 2ec4 8ebe 5b2a 053f
000003c0: dc7f 01be 7641 63be 3628 ea3d 3ac8 91be
000003d0: 630f c1bd 4a5d 03be 627b 033f 2a72 a9be
000003e0: 3d28 99be 7b0d f9bc c721 82bd 11c3 3fbe
000003f0: e6e5 0b3e abb4 04bf 3783 973e 9654 f9bd
-0.085727304 0.072094075 -0.30932435 -0.31520563 -0.25404972 0.47375977 -0.24141996 -0.19237758
-0.10496379 -0.15667085 -0.12937471 -0.17507963 -0.19426845 -0.3480745 0.07286804 -0.04486272
0.1677041 0.25071242 -0.20224898 0.064040154 0.48005298 0.0947418 -0.2382627 0.27570948
-0.11876929 -0.57503015 0.5438731 0.04245967 -0.48316547 -0.20405786 0.2380917 -0.10262804
-0.017018382 -0.08144059 0.15196042 -0.059948694 -0.10508637 0.0853704 0.04899801 0.009870887
-0.0023529744 0.18199278 0.03586373 -0.05058025 -0.045487847 0.0043179826 0.19947088 0.1666357
-0.5567626 0.24102326 0.34128824 0.19284002 0.3850249 0.16156963 -0.034138344 0.15174246
0.12949361 -0.81663454 -0.36054486 -0.17886314 0.23110595 0.36121964 0.34119403 -0.18412413
-0.26533073 -0.23333186 -0.26604453 0.13530678 0.02671593 0.006887567 0.12584622 0.0850957
0.16703159 -0.09897334 0.36240798 0.08625255 0.27254492 0.48741874 -0.06110159 -0.46126187
-0.97786605 -0.25437045 0.13165589 0.040625863 0.08921108 -0.31493232 -0.3120206 -0.0739552
-0.109786704 -0.10894298 -0.22232291 -0.30577248 -0.055283673 0.5095197 -0.30021474 -0.19354418
0.0625049 0.53205377 0.1305584 -0.30385077 0.1864584 0.20000453 0.07094334 -0.018013828
-0.058690175 -0.20956357 0.15033437 -0.010759179 -0.08287965 0.03501778 0.2539417 0.036356833
-0.09716445 0.17598192 0.30923066 -0.13964865 -0.5854909 0.23032072 -0.3326369 -0.20090398
0.08645631 0.014492612 0.29052886 -0.108949825 -0.49784875 0.14676319 -0.017150989 -0.004445455
-0.3002933 -0.43161386 0.06478576 -0.19951358 -0.34005338 -0.40600264 -0.34108135 -0.25549448
0.031260237 0.20676441 -0.31575105 0.041269578 -0.24144563 -0.20590483 -0.06325855 0.16045235
-0.02887869 -0.58262956 0.17438944 0.022613652 0.2693915 0.42829737 -0.37013236 0.08910132
-0.060627993 -0.16048865 0.076791316 0.48682424 -0.25257602 -0.17733374 -0.48646468 0.23327127
-0.0045573404 -0.29626045 0.108214185 0.08528637 -0.17818588 0.2968499 0.088007 0.4745761
-0.16753423 -0.3996603 0.13827986 0.2524974 -0.31799623 -0.4940095 -0.010747003 -0.19771884
0.068455994 0.28661463 -0.31545186 0.24302174 0.15172128 0.26339373 0.31370962 0.11591196
0.28007752 -0.04488015 -0.19798335 -0.15010704 0.08106424 -0.37504905 0.17109664 -0.14490215
0.055463135 -0.057814818 -0.25808024 0.00952655 0.18426237 0.09624548 0.29830903 -0.13806836
0.106944144 0.5807479 -0.30091432 0.22100031 -0.3475262 0.03788271 0.45184827 -0.17396437
0.0023717699 0.045310024 0.25768897 0.39814973 -0.36042687 -0.06714978 -0.14118648 0.018130219
0.38218418 -0.055952 0.0029550225 0.31664193 -0.57156515 0.28948647 0.07861125 -0.24940975
-0.2820842 0.16779795 1.0188559 -0.100063644 0.39950848 0.04838915 0.30197856 -0.036599245
-0.08931088 0.016775876 -0.0029787004 -0.10591761 -0.17533071 0.0053891004 -0.27884048 0.52017754
-0.1264643 -0.2219294 0.11433451 -0.28473073 -0.09426763 -0.12828556 0.5136014 -0.33094913
-0.29913512 -0.030401936 -0.06354099 -0.18726756 0.13661918 -0.5183818 0.29592296 -0.121743366
