models/Continuous/Pendulum-v1/NAF/final_weights_NAF_Pendulum-v1_2000.pth (torch, 46005 bytes, 14 tensors)

shared.net.0.weight f4 [128, 3]
-0.4285834 -0.09835109 -0.4123286 0.4919679 0.0014713835 0.1998007 0.23583925 0.30157104
0.13100396 0.12048162 -0.8004575 -0.11038159 -0.03359653 0.61643326 0.15529436 0.3586048
-0.20878795 -0.14493568 -0.45344087 0.07118761 0.33774945 0.41494933 -0.08395949 -0.17974697
-0.46483487 -0.5603136 0.04225448 0.31781912 -0.07607104 -0.24081546 0.19118014 0.7563079
0.10263563 0.6631974 0.5318252 0.37313196 0.19732782 0.72553027 0.19478408 -0.5670966
-0.079553545 0.08788499 0.346127 0.1542494 0.11209937 0.7019991 0.20837341 -0.34600088
0.364025 0.0028536902 0.23119433 0.17031625 0.14861429 -0.2552201 -0.82070863 0.24181712
0.0061434903 0.52254003 0.17449152 0.19846745 0.20768838 -0.04869218 0.7458413 0.124612726
-1.0360627 -0.123799376 0.4804821 0.32736355 -0.048563816 0.021073576 -0.3984112 -0.26821646
0.6335788 0.18227422 0.6076605 -0.22447874 -0.35917038 -0.08989626 0.47158036 -0.5103873
-0.08657147 -0.3319237 -0.9091221 -0.04722966 0.5523266 0.32133424 0.21992244 0.0034443077
0.90700924 -0.11262967 0.46925724 -0.4445143 0.02032293 0.24703716 0.3307 0.2784219
0.2965725 -0.26307425 -0.09755806 -0.1604089 -0.5690636 -0.020641832 0.7547243 -0.18046497
-0.27072224 0.011755199 -0.60939026 -0.2425727 0.43120867 -0.41763332 -0.14139865 0.36092946
0.5410861 0.1305376 0.36571068 0.3414822 -0.06298329 0.15275694 -0.75018555 -0.16873057
-0.39367712 -0.16868067 0.46439037 1.1891165 0.2866307 0.11141555 0.69437027 -0.7650656
-0.19452092 -0.68641293 -1.0078996 -0.058410637 0.50629723 -0.6133237 -0.087549776 0.06655237
-0.2235314 0.40464562 0.3351446 -0.48492187 -0.22064589 0.42745644 -0.3013063 -0.6600717
0.30306864 0.04941253 0.22011934 0.47964406 -0.5129057 -0.21455441 -0.62988585 0.5067975
-0.06391067 -1.1225661 -0.635775 -0.09401311 0.62051636 -0.3606553 -0.28895196 -0.49955314
0.13629036 -0.3069452 0.12046271 -1.014335 -0.0069546294 0.35771623 0.5149971 0.17881739
0.52271533 0.6337118 0.029643975 0.77170765 -0.6040437 -0.25081235 0.04520172 0.61891437
-0.20176597 0.08219436 0.50877494 0.088108584 0.46505544 0.4089527 0.23917194 0.40731016
-0.66764224 0.007740424 0.60031444 0.34207633 0.16399853 0.69505227 -0.17526285 -0.28176823
-0.14662276 -1.0543164 -0.030248791 0.2670304 -0.30144274 0.12882288 0.6335494 0.33344057
0.174548 0.030386453 0.7902782 0.4301168 -0.34806222 0.52036977 0.15239275 0.22915456
0.4149347 -0.25539342 -0.6923844 0.024646712 -0.09682894 -0.66837776 -0.6383011 -0.16828795
-0.14066017 0.99741024 0.09936739 -0.033766795 -0.41848448 -0.123385824 0.3793376 -0.101798795
-0.14935894 -0.5574071 -0.08727625 0.09787256 0.42886245 0.524044 -0.020952286 -0.039367467
-0.72921675 -0.12653466 0.047984987 -0.5837203 -0.13240576 -0.52011347 -0.08123495 -0.17898762
0.09446649 0.9551151 -0.103910424 0.09294809 -0.57223445 -0.53917605 0.3788578 -0.4347696
-0.32952368 0.43224078 0.6774282 -0.19176221 0.2385836 1.0510765 0.05234057 0.44654652
00000000: 496f dbbe 4c6c c9bd bc1c d3be 37e3 fb3e
00000010: 70db c03a 8e98 4c3e d87f 713e 8567 9a3e
00000020: e725 063e 11bf f63d c8ea 4cbf be0f e2bd
00000030: 849c 09bd 92ce 1d3f 7c05 1f3e 0c9b b73e
00000040: 82cc 55be 056a 14be 6729 e8be cfca 913d
00000050: 7fed ac3e 3d74 d43e f4f2 abbd 970f 38be
00000060: d6fe edbe b670 0fbf 0913 2d3d 30b9 a23e
00000070: 22cb 9bbd 5498 76be bac4 433e 659d 413f
00000080: a132 d23d 4ec7 293f b225 083f 270b bf3e
00000090: 4e10 4a3e 5abc 393f 7a75 473e 3e2d 11bf
000000a0: f8ec a2bd 0cfd b33d 8f37 b13e 8ef3 1d3e
000000b0: 5b94 e53d 37b6 333f d75f 553e 0727 b1be
000000c0: 7c61 ba3e fa04 3b3b 35be 6c3e 6267 2e3e
000000d0: 582e 183e 35ac 82be f619 52bf e89e 773e
000000e0: 554f c93b 2fc5 053f e8ad 323e 0d3b 4b3e
000000f0: 43ac 543e 7471 47bd 75ef 3e3f f534 ff3d
00000100: b49d 84bf 878a fdbd c001 f63e 329c a73e
00000110: daea 46bd 7ea2 ac3c 8efc cbbe ab53 89be
00000120: 3832 223f 18a6 3a3e a38f 1b3f c1dd 65be
00000130: 2ee5 b7be 881b b8bd fb72 f13e bea8 02bf
00000140: 624c b1bd e7f1 a9be 3abc 68bf e373 41bd
00000150: 4765 0d3f ec85 a43e 5933 613e e5b9 613b
00000160: c231 683f 62aa e6bd 7c42 f03e 6197 e3be
00000170: 467c a63c 4ff7 7c3e 8351 a93e 518d 8e3e
00000180: 5ad8 973e abb1 86be 85cc c7bd 3b42 24be
00000190: 27ae 11bf 0f19 a9bc 9d35 413f cfcb 38be
000001a0: 1b9c 8abe e198 403c 0001 1cbf fa64 78be
000001b0: 62c7 dc3e 09d4 d5be cfca 10be bfcb b83e
000001c0: 9e84 0a3f a6ab 053e 6e3e bb3e c1d6 ae3e
000001d0: 62fd 80bd 516c 1c3e 290c 40bf b5c7 2cbe
000001e0: 0c90 c9be a0ba 2cbe 93c4 ed3e f834 983f
000001f0: 42c1 923e d62d e43d 40c2 313f 57db 43bf
00000200: 7e30 47be c2b8 2fbf db02 81bf fe3f 6fbd
00000210: b29c 013f c802 1dbf 4c4d b3bd 9c4c 883d
00000220: 6ae5 64be b62d cf3e 1398 ab3e ae47 f8be
00000230: fff0 61be 92db da3e d244 9abe 75fa 28bf
00000240: d02b 9b3e cb64 4a3d f766 613e e893 f53e
00000250: ca4d 03bf 27b4 5bbe 3340 21bf 7bbd 013f
00000260: 99e3 82bd 3fb0 8fbf 27c2 22bf f289 c0bd
00000270: 29da 1e3f d0a7 b8be 83f1 93be 6ec5 ffbe
00000280: b38f 0b3e ec27 9dbe 27b5 f63d bbd5 81bf
00000290: a9e3 e3bb 9526 b73e dad6 033f e81b 373e
000002a0: acd0 053f f03a 223f ecd7 f23c a28e 453f
000002b0: 9ca2 1abf 7a6a 80be 7025 393d 2c71 1e3f
000002c0: bd9b 4ebe 8455 a83d 133f 023f 4672 b43d
000002d0: bf1b ee3e 4062 d13e 7de9 743e f58a d03e
000002e0: 9aea 2abf 62a3 fd3b 35ae 193f a124 af3e
000002f0: 3bef 273e f2ee 313f 1b78 33be ed43 90be
00000300: 4724 16be d7f3 86bf 50cc f7bc 35b8 883e
00000310: b456 9abe 25ea 033e 4b30 223f b9b8 aa3e
00000320: b6bc 323e 03ed f83c ac4f 4a3f 4538 dc3e
00000330: 3635 b2be f436 053f d80c 1c3e 7ea7 6a3e
00000340: 5272 d43e edc2 82be 1b40 31bf e7e7 c93c
00000350: 404e c6bd ce1a 2bbf b367 23bf ad53 2cbe
00000360: 3809 10be 4756 7f3f 2181 cb3d 0d4f 0abd
00000370: 9943 d6be b5b1 fcbd 8a38 c23e e37b d0bd
00000380: 8df1 18be 3bb2 0ebf e4bd b2bd 6971 c83d
00000390: dc93 db3e bf27 063f 21a4 abbc c83f 21bd
000003a0: f3ad 3abf 4d92 01be e88b 443d b26e 15bf
000003b0: 6095 07be 2826 05bf 825e a6bd 8848 37be
000003c0: a677 c13d 6c82 743f fdce d4bd 915b be3d
000003d0: f57d 12bf 7107 0abf a6f9 c13e 1f9a debe
000003e0: 54b7 a8be aa4e dd3e ef6b 2d3f 505d 44be
000003f0: 424f 743e ad89 863f 1163 563d bfa1 e43e

shared.net.0.bias f4 [128]
0.3748927 -0.41340774 -0.13512692 -0.09475925 -0.29083726 -0.35161722 0.24202739 0.9426482
0.17227104 0.4011062 -0.33078286 0.16917844 0.31868073 -0.15237683 0.09299294 -0.19366805
0.23590913 -0.06212708 -0.65806973 -0.05531446 1.0203568 0.19630933 -0.063157804 0.38234493
-0.58846045 0.2995879 -0.17779176 -0.19135019 0.050468724 0.12750898 -0.3714967 0.12522534
-0.19685957 -0.30949342 -0.5012969 -0.45226863 0.3197828 -0.25148103 0.18973292 0.09274956
-0.5496056 -0.41120157 -0.044689335 -0.06766304 -0.21991971 0.1026021 0.6099969 -0.16592984
0.05391295 -0.021849155 -0.44493753 -0.04806575 -0.10765512 0.14995448 -0.14677046 0.10624203
-0.28374356 0.081841186 0.010401242 0.031718284 -0.3062198 0.7701896 0.23932126 -0.34859627
0.32497573 -0.4377759 -0.10297895 0.103036314 0.19703825 0.030718474 -0.4679289 0.85407573
0.28451508 -0.19377579 -0.5110446 0.10541508 0.42031842 0.249814 -0.09123283 0.31234938
0.023942975 -0.17490254 -0.7956883 0.17795682 -0.22310092 0.0068388763 0.0010790162 0.10785887
-0.3475198 0.31956425 -0.51412183 0.42838338 -0.60689926 -0.27483177 -0.032921318 0.18634842
-0.17183943 0.3788281 -0.20434684 0.37893698 0.07842519 0.3268686 -0.5260109 -0.5678345
0.32250318 0.1891626 -0.5713628 -0.11205214 0.0021565747 0.0581938 -0.41945925 -0.4119412
0.28873178 -0.4893765 0.15681946 0.7112931 -0.64083844 0.33829412 0.07941855 0.54054403
-0.11738331 -0.80416954 0.1313614 0.7020485 0.19981854 0.6948707 -0.6893373 -0.3528932
00000000: f0f1 bf3e 2eaa d3be b65e 0abe 2311 c2bd
00000010: 9fe8 94be 2c07 b4be 07d6 773e 6451 713f
00000020: d267 303e cb5d cd3e 5f5c a9be 1d3d 2d3e
00000030: 1f2a a33e ac08 1cbe 1573 be3d eb50 46be
00000040: 2a92 713e f778 7ebd 4277 28bf 6a91 62bd
00000050: 0d9b 823f 5005 493e e158 81bd b7c2 c33e
00000060: 58a5 16bf 9663 993e 0b0f 36be 4ef1 43be
00000070: 4bb8 4e3d b791 023e d134 bebe 123b 003e
00000080: 8e95 49be ec75 9ebe fe54 00bf c18f e7be
00000090: 92ba a33e 1fc2 80be 5949 423e 7bf3 bd3d
000000a0: f4b2 0cbf 0389 d2be 2a0c 37bd eb92 8abd
000000b0: a232 61be 0d21 d23d c228 1c3f 83e9 29be
000000c0: d3d3 5c3d 00fd b2bc dace e3be 98e0 44bd
000000d0: 4a7a dcbd ab8d 193e ff4a 16be 6c95 d93d
000000e0: d646 91be 5a9c a73d f969 2a3c 08eb 013d
000000f0: d7c8 9cbe 252b 453f a210 753e 367b b2be
00000100: 3863 a63e 2a24 e0be a1e6 d2bd b404 d33d
00000110: 65c4 493e 4fa5 fb3c 6094 efbe b5a4 5a3f
00000120: f6ab 913e 296d 46be d2d3 02bf dde3 d73d
00000130: fa33 d73e 3ecf 7f3e 47d8 babd 42ec 9f3e
00000140: 0f24 c43c a719 33be 3ab2 4bbf 503a 363e
00000150: 9174 64be a718 e03b c76d 8d3a 1ce5 dc3d
00000160: 1dee b1be ed9d a33e 7d9d 03bf 1155 db3e
00000170: c05d 1bbf c0b6 8cbe 81d8 06bd 1fd2 3e3e
00000180: adf6 2fbe c2f5 c13e 4c40 51be 0704 c23e
00000190: 639d a03d 525b a73e a6a8 06bf 9a5d 11bf
000001a0: 231f a53e d7b3 413e d544 12bf 987b e5bd
000001b0: 5255 0d3b 9f5c 6e3d 5dc3 d6be f5e9 d2be
000001c0: a7d4 933e 8e8f fabe 4895 203e 4e17 363f
000001d0: fd0d 24bf e334 ad3e 31a6 a23d 1861 0a3f
000001e0: a966 f0bd 0ede 4dbf 9a83 063e 73b9 333f
000001f0: 3b9d 4c3e 0ce3 313f 6978 30bf 6bae b4be

shared.net.1.weight f4 [128]
0.34901544 0.6958909 0.8069099 0.73737127 0.82136047 1.4961541 0.9294004 0.7453355
0.9016211 0.6106323 0.5835491 0.8133807 0.4504678 0.76890695 1.1531638 0.7644776
0.5758167 0.5541796 0.6241742 0.6964466 0.7346832 0.4089232 0.85207075 0.66422284
0.7386482 0.69277716 0.6793933 0.43683052 1.6318095 0.7912142 0.5599915 1.2991751
0.9579034 0.5687909 1.0251724 0.6041626 1.4280406 0.7722507 0.7873489 0.8755233
0.37544036 1.3983239 0.50637835 0.77122456 0.61529607 0.4590367 0.583793 0.2859841
0.9844281 0.5439322 0.536426 0.66095 0.6595161 0.6572658 0.42669684 0.23558448
1.000782 1.238778 0.7020882 0.6246412 0.97312784 1.0441991 0.82527685 1.1677234
0.5997782 0.408397 1.7201338 0.32256177 0.60034645 0.639555 0.8039124 0.6166204
0.3328403 0.6453898 0.8147832 1.1957687 0.8048058 0.5847232 0.36731523 0.71884793
0.55421996 0.32871234 0.3920781 0.6484519 0.6185425 1.4223534 0.7286929 0.86809546
0.95836467 0.25235647 0.423365 0.57185996 0.747071 0.6858248 0.67827415 0.3182686
0.30538025 0.5905978 1.9436153 0.959926 0.70789695 0.48998684 1.1853967 0.9782975
0.60321903 0.4042673 0.8588256 0.6866722 1.6720312 0.75683725 1.3089523 0.6889643
0.67352176 0.76522756 0.50987476 0.8274785 0.76676595 1.0875293 0.82014155 0.8464409
0.7121013 0.78930426 0.884629 1.2675 0.5459319 0.67204887 0.57460487 0.68491375
00000000: 27b2 b23e e825 323f a691 4e3f 5dc4 3c3f
00000010: ae44 523f fa81 bf3f 2fed 6d3f 4fce 3e3f
00000020: a4d0 663f 6652 1c3f 7963 153f b839 503f
00000030: b7a3 e63e 16d7 443f df9a 933f ceb4 433f
00000040: b968 133f b7de 0d3f e1c9 1f3f 534a 323f
00000050: 3314 3c3f 625e d13e 4f21 5a3f 820a 2a3f
00000060: 0c18 3d3f d859 313f b8ec 2d3f 40a8 df3e
00000070: 22df d03f 048d 4a3f 9a5b 0f3f 5f4b a63f
00000080: 2839 753f 489c 113f d938 833f 66aa 1a3f
00000090: 09ca b63f 39b2 453f b38f 493f 4c22 603f
000000a0: b839 c03e 47fc b23f 03a2 013f f96e 453f
000000b0: 0b84 1d3f dc06 eb3e 7573 153f 826c 923e
000000c0: 7b03 7c3f 243f 0b3f 3753 093f 0534 293f
000000d0: 0cd6 283f 9242 283f 0278 da3e 0f3d 713e
000000e0: a019 803f 4790 9e3f 0dbc 333f 7ce8 1f3f
000000f0: e81e 793f 51a8 853f 5845 533f f677 953f
00000100: 108b 193f 6919 d13e 582d dc3f d126 a53e
00000110: 4eb0 193f e0b9 233f 34cd 4d3f d6da 1d3f
00000120: 0b6a aa3e 4438 253f a295 503f f30e 993f
00000130: c107 4e3f 6bb0 153f be10 bc3e 6b06 383f
00000140: 5ce1 0d3f fc4c a83e 76be c83e f200 263f
00000150: cd58 1e3f ad0f b63f 9e8b 3a3f 813b 5e3f
00000160: 6357 753f de34 813e 4cc3 d83e 6a65 123f
00000170: 0c40 3f3f 3792 2f3f 60a3 2d3f 1af4 a23e
00000180: cd5a 9c3e 6b31 173f 63c8 f83f b6bd 753f
00000190: bc38 353f 8edf fa3e 14bb 973f b471 7a3f
000001a0: 906c 1a3f 20fc ce3e ffdb 5b3f c0c9 2f3f
000001b0: 1e05 d63f 16c0 413f c08b a73f f75f 303f
000001c0: ec6b 2c3f f4e5 433f 2787 023f a2d5 533f
000001d0: c64a 443f 2934 8b3f ccf4 513f 5ab0 583f
000001e0: 454c 363f d80f 4a3f 0c77 623f 713d a23f
000001f0: 31c2 0b3f 650b 2c3f 4e19 133f 8256 2f3f

shared.net.1.bias f4 [128]
-0.86016184 0.83219707 0.10623744 -0.62369764 -0.42812824 -0.1451419 0.5269219 -0.08859179
0.42320767 0.7407842 0.40308473 0.1778409 0.2809938 -0.25963056 0.014020458 -0.27891898
0.8963064 -0.80986226 -0.5069091 -0.1537415 0.21990992 -0.7371807 0.16519953 0.51333314
-1.0086288 -0.95166135 0.52869314 -1.1057013 -0.2140889 -0.49752957 0.9009298 -0.18636243
-0.36082473 -0.84309894 -0.85878867 0.21864644 -0.9995561 -0.80648106 0.17188758 -0.8314917
-0.5676983 -0.114462376 0.72843945 -1.1714368 0.7601629 -1.1699753 0.53296167 -0.49437854
0.32481027 0.12031886 -0.74761295 -0.19394827 0.054585606 -0.9168615 0.6675127 0.3887271
-0.79312116 -0.63130766 0.17407726 -0.8633686 -0.2790001 0.018128894 -0.94100434 -0.36525768
-0.3091688 0.5737157 0.4536131 0.12812275 -0.1550234 -0.2546333 -0.2170901 -0.26101795
-0.6463337 0.33749428 0.10429989 0.4589857 -0.33627898 0.59716177 -0.026504794 -0.396103
0.14437442 -0.40429658 -0.10917128 0.39581725 -0.79168046 0.710245 -1.01233 -0.33501
-0.49703947 -0.17659195 -1.0618248 0.3906558 0.04962089 -1.0269482 -1.3419831 -0.59384596
0.2953038 -0.7791634 -0.073300436 0.8554164 -1.2302663 -1.1730596 -0.27272293 -0.11690171
0.6209686 -0.08315632 0.090859935 0.37973163 -0.08405246 -0.8407199 -0.25579536 0.2355556
-0.21125005 -0.66976005 0.5139599 -0.40644324 0.13189463 0.24457672 -1.2529798 0.050145537
-0.7062647 0.5686486 -0.9845295 -0.7857958 0.40058908 0.02083486 -0.12582918 0.029818892
00000000: 9133 5cbf de0a 553f 0493 d93d a6aa 1fbf
00000010: a033 dbbe 14a0 14be 5be4 063f 9d6f b5bd
00000020: adae d83e 09a4 3d3f 1f61 ce3e ed1b 363e
00000030: 6bde 8f3e 4cee 84be 10b6 653c 78ce 8ebe
00000040: 5674 653f 2253 4fbf cbc4 01bf 696e 1dbe
00000050: 1130 613e e0b7 3cbf 112a 293e cd69 033f
00000060: c01a 81bf 14a0 73bf 6f58 073f 9f87 8dbf
00000070: 1f3a 5bbe 32bc febe 56a3 663f cbd5 3ebe
00000080: 05be b8be 55d5 57bf 93d9 5bbf dae4 5f3e
00000090: e9e2 7fbf 8b75 4ebf 4c03 303e a4dc 54bf
000000a0: ad54 11bf 406b eabd 027b 3a3f a4f1 95bf
000000b0: 099a 423f c0c1 95bf 2d70 083f 2f1f fdbe
000000c0: 884d a63e bc69 f63d 9063 3fbf 609a 46be
000000d0: 2895 5f3d 6fb7 6abf 1de2 2a3f 3d07 c73e
000000e0: fd09 4bbf 619d 21bf 4f41 323e b905 5dbf
000000f0: 1ad9 8ebe 0c83 943c a9e5 70bf 0e03 bbbe
00000100: 5f4b 9ebe 08df 123f fa3f e83e 9c32 033e
00000110: 74be 1ebe 4c5f 82be de4c 5ebe 25a4 85be
00000120: 2076 25bf 0dcc ac3e 2e9b d53d 2c00 eb3e
00000130: c22c acbe 98df 183f 9520 d9bc 03ce cabe
00000140: e3d6 133e f6ff cebe 3195 dfbd 8fa8 ca3e
00000150: 92ab 4abf 9ed2 353f 0894 81bf 6e86 abbe
00000160: f57b febe 85d4 34be e0e9 87bf 0904 c83e
00000170: 463f 4b3d 0a73 83bf 1ac6 abbf 4a06 18bf
00000180: 0f32 973e 4177 47bf 8a1e 96bd 92fc 5a3f
00000190: 5e79 9dbf d126 96bf 57a2 8bbe 2a6a efbd
000001a0: ccf7 1e3f dc4d aabd c614 ba3d 2f6c c23e
000001b0: b223 acbd 6b39 57bf 9cf7 82be 7d35 713e
000001c0: ef51 58be 6575 2bbf e092 033f 5419 d0be
000001d0: 630f 073e 5272 7a3e a461 a0bf 6865 4d3d
000001e0: c3cd 34bf f492 113f 200a 7cbf ea29 49bf
000001f0: 031a cd3e dead aa3c 5dd9 00be c046 f43c

shared.net.1.running_mean f4 [128]
0.063758604 -0.032230686 0.03911768 0.025172597 -0.3410451 -0.047901914 -0.14896235 1.2903999
-0.1948938 0.67646354 -0.19953413 0.66517055 0.44963005 -0.6133593 0.35993493 0.39346156
0.5112241 0.091626085 -1.3225119 0.34631562 1.1317009 0.3253819 0.32068473 0.4264842
-0.12831502 0.13250233 0.21728286 -0.4388431 0.47292092 0.121964104 0.012422314 0.29648554
0.053495295 -0.42724258 0.12946926 -0.41429967 0.6849715 0.01871696 0.4831603 0.24222068
-0.8983812 0.53179705 0.542445 -0.5968573 0.20451516 0.12947175 0.9045572 0.23337162
0.28056172 0.38981295 -0.9559335 -0.93204075 0.41977635 -0.23113626 -0.031314168 0.37212935
0.123583674 0.7324918 0.050549615 0.08207925 0.042206947 1.1093683 0.703635 0.23469596
0.22793171 -0.2271651 0.38702324 0.08061338 -0.10407726 0.22699048 -1.0180868 0.33995977
0.14534271 -0.20443885 -0.19335517 -0.34767398 0.7570547 0.24077424 -0.03279868 -0.09105092
0.09037689 -0.04879364 -0.45846 0.5282914 -0.054110706 0.3824552 0.20302653 0.6620428
-0.022100534 0.58798283 -1.1515877 0.6316407 -0.5394704 -1.2131207 -0.7343937 0.24966344
0.2259069 -0.24153869 0.45763305 0.78131264 -0.6070466 0.06315153 -0.1508507 -0.035965715
0.76455057 0.28341964 -0.6644657 0.12936766 0.6391154 0.42790073 0.0015204871 -0.28662726
0.5285659 -0.10197327 0.44583693 1.0413971 -1.2220728 0.6872141 -0.37892476 0.3958521
0.33504385 -0.44948623 -0.02986385 1.1223927 0.5476854 0.7198555 -0.54046434 -0.074197456
00000000: df93 823d 5304 04bd dc39 203d c336 ce3c
00000010: 779d aebe cc34 44bd 9689 18be d32b a53f
00000020: 3e92 47be b72c 2d3f ad52 4cbe 9e48 2a3f
00000030: e935 e63e 1d05 1dbf 6449 b83e cb73 c93e
00000040: 95df 023f 75a6 bb3d 1248 a9bf 4850 b13e
00000050: 93db 903f 7598 a63e ca30 a43e 235c da3e
00000060: 0365 03be b1ae 073e 667f 5e3e 0bb0 e0be
00000070: b122 f23e 51c8 f93d f686 4b3c f4cc 973e
00000080: e21d 5b3d 8abf dabe 9793 043e 161f d4be
00000090: 4b5a 2f3f 4f54 993c c960 f73e b308 783e
000000a0: 4ffc 65bf da23 083f addd 0a3f a4cb 18bf
000000b0: 6c6c 513e 3e94 043e 1091 673f f8f8 6e3e
000000c0: c9a5 8f3e 9095 c73e 0fb8 74bf 399a 6ebf
000000d0: edec d63e fcae 6cbe 4943 00bd bd87 be3e
000000e0: 7019 fd3d 9584 3b3f 1d0d 4f3d 2a19 a83d
000000f0: 31e1 2c3d c8ff 8d3f 6c21 343f 2354 703e
00000100: ee66 693e f89d 68be e927 c63e a118 a53d
00000110: 7526 d5bd 3170 683e ab50 82bf 350f ae3e
00000120: b8d4 143e 6b58 51be e6fe 45be 5302 b2be
00000130: 56ce 413f 868d 763e e957 06bd e878 babd
00000140: 8517 b93d d7db 47bd 45bb eabe 1b3e 073f
00000150: 30a3 5dbd 2bd1 c33e 30e6 4f3e a37b 293f
00000160: 2e0c b5bc 0b86 163f 3a67 93bf 34b3 213f
00000170: bb1a 0abf 8a47 9bbf 3a01 3cbf c6a7 7f3e
00000180: 2354 673e eb55 77be e14e ea3e 1b04 483f
00000190: 6867 1bbf 9755 813d 9b78 1abe c950 13bd
000001a0: 96b9 433f 611c 913e 6d1a 2abf f578 043e
000001b0: 119d 233f ce15 db3e 154b c73a cfc0 92be
000001c0: 1850 073f 5dd7 d0bd bd44 e43e 804c 853f
000001d0: e26c 9cbf 43ed 2f3f 6d02 c2be 20ad ca3e
000001e0: de8a ab3e 0f23 e6be 08a5 f4bc 90aa 8f3f
000001f0: 1c35 0c3f 7348 383f df5b 0abf d6f4 97bd

shared.net.1.running_var f4 [128]
0.5457662 0.1937388 0.062393676 0.07282709 0.07364541 0.07728914 0.33314788 0.11555146
0.08680525 0.16785452 0.07000446 0.5050459 0.12556797 0.09463077 0.068770155 0.43308455
0.200615 0.19361646 0.18202671 0.19015698 1.6089875 0.112491496 0.07157565 0.18128017
1.1760101 0.039405163 0.087764196 0.0965796 0.21956994 0.14997941 0.0880906 0.22479345
0.043886967 0.034029596 0.29888242 0.15316667 0.09420273 0.090709105 0.055016074 0.09848098
0.6308046 0.4097131 0.22618882 0.19860138 0.10670046 0.4988897 0.14280939 1.1516566
0.16894202 0.16337205 0.16644806 0.36656168 0.27957085 0.37595838 0.10742475 0.12606734
0.09905046 0.28843805 0.18880925 0.0346568 0.21681349 0.09740014 0.17444336 0.29467294
0.10434033 0.09577895 0.19586296 0.4719739 0.09123698 0.23124076 0.16349319 0.20800032
0.10071126 0.043840032 0.084447 0.09663588 0.070250995 0.067942 0.05768568 0.1723139
0.15011331 0.73723495 0.29109874 0.21174365 0.10909621 0.08676772 0.07671265 0.37625152
0.14629377 1.1579229 0.17750244 0.35672364 0.08416111 0.34336805 0.20786703 0.12854263
0.31905594 0.18442309 0.35760605 0.21729188 0.19445398 0.06454349 0.09887222 0.20381841
0.63395226 0.0847741 0.05910251 0.06403568 0.16204268 0.23252434 0.14856787 0.39800867
0.43517348 0.09580072 0.24481316 0.12943088 0.2879023 0.103087515 0.096501686 0.15080366
0.35010177 0.09991953 0.091487795 0.09513158 0.37106583 0.19725975 0.9144975 0.078333266
00000000: 55b7 0b3f 7763 463e 8390 7f3d 5f26 953d
00000010: 68d3 963d c549 9e3d 5c92 aa3e 3ea6 ec3d
00000020: f3c6 b13d 0ee2 2b3e 805e 8f3d b04a 013f
00000030: e494 003e c7cd c13d 5ed7 8c3d 42bd dd3e
00000040: 056e 4d3e 6543 463e 3665 3a3e 83b8 423e
00000050: 4df3 cd3f f161 e63d 4196 923d 82a1 393e
00000060: 8087 963f 4f67 213d b7bd b33d 86cb c53d
00000070: f1d6 603e 3494 193e d868 b43d 4130 663e
00000080: d2c2 333d 9e62 0b3d 1e07 993e b9d7 1c3e
00000090: 5ced c03d b2c5 b93d 8958 613d 65b0 c93d
000000a0: 697c 213f eac5 d13e 0b9e 673e 295e 4b3e
000000b0: c585 da3d 796e ff3e a03c 123e 7c69 933f
000000c0: 23ff 2c3e 014b 273e 5c71 2a3e f9ad bb3e
000000d0: e923 8f3e 9e7d c03e 8201 dc3d cc17 013e
000000e0: f8da ca3d 27ae 933e 3657 413e 4af4 0d3d
000000f0: 5b04 5e3e b979 c73d 48a1 323e 5fdf 963e
00000100: 62b0 d53d c127 c43d 4d90 483e 90a6 f13e
00000110: 74da ba3d 61ca 6c3e c26a 273e 09fe 543e
00000120: b541 ce3d 9b91 333d 8cf2 ac3d 08e9 c53d
00000130: c1df 8f3d 2d25 8b3d d247 6c3d 0e73 303e
00000140: 4eb7 193e 6ebb 3c3f e50a 953e 54d3 583e
00000150: d56d df3d 46b3 b13d 861b 9d3d 0aa4 c03e
00000160: 09ce 153e d136 943f 33c3 353e 7ba4 b63e
00000170: a95c ac3d f0cd af3e 18db 543e aea0 033e
00000180: 4d5b a33e 68d9 3c3e 2418 b73e c381 5e3e
00000190: f21e 473e 612f 843d 857d ca3d c6b5 503e
000001a0: b24a 223f 0b9e ad3d 7915 723d 2325 833d
000001b0: 84ee 253e dc1a 6e3e 2d22 183e cbc7 cb3e
000001c0: 0fcf de3e 2b33 c43d 4db0 7a3e 8789 043e
000001d0: ee67 933e 8c1f d33d ada2 c53d 466c 1a3e
000001e0: 8a40 b33e 9ca2 cc3d f45d bb3d 59d4 c23d
000001f0: 57fc bd3e 76fe 493e 821c 6a3f 316d a03d

shared.net.3.weight f4 [64, 128]
0.034853633 0.13776812 -0.27855325 -0.5867029 0.12418964 0.27089688 0.085147515 -0.015255255
-0.015731702 -0.31964412 -0.39114672 -0.19505022 -0.2773583 -0.12458128 -0.015645066 0.18376109
0.055393063 0.12928993 -0.27148712 -0.2920363 -0.1565656 0.070275955 -0.3490993 0.023585312
-0.15760726 0.11772602 -0.0293328 0.011583741 0.108355485 0.034107126 0.13031471 0.4841928
0.08193597 -0.299642 0.2689252 -0.123919 -1.1616782 -0.8041069 0.06738757 -0.07327017
-0.041007772 -0.5259901 -0.09216238 -0.073576316 -0.001406128 0.046533026 0.14531045 0.07087649
-0.0900171 0.29282707 0.13015603 -0.20145588 0.1451782 0.05194422 -0.16579087 0.02440908
-0.59300214 0.57492095 -0.07467397 0.009833229 0.3585326 -0.22393425 -0.83488244 -0.26424703
-0.15690918 -0.030228827 0.16530642 0.12062459 0.2951285 -0.121865906 -0.16308686 0.087052844
0.026248133 -0.0700064 0.0992036 -0.06617011 -0.39798456 -0.379938 0.05794237 0.18366101
-0.003944878 -0.02016885 0.018950969 -0.06969882 -0.17719641 0.5197274 -0.49354252 0.08644905
0.49657625 0.10758665 -0.19472504 -0.06931322 -0.2040023 -0.09389112 -0.14462517 0.07972073
-0.2687762 -0.21789816 0.008744677 0.0343032 -0.21575865 -0.008888314 0.0431863 0.022218626
-0.2959669 -0.12280388 0.20637287 -0.122655705 -0.34948835 -0.21291426 0.37954292 0.007104061
0.04591721 -0.5004074 0.117441535 0.29400763 -0.10131795 0.42212093 -0.04599765 0.2531921
0.06983193 0.058121756 -0.030495502 -0.43325675 -0.1938442 -0.05954565 -0.061694246 0.1425533
0.003481591 0.16341653 -0.07598893 -0.08384203 -0.25086433 0.19072253 0.12100533 0.03255277
0.10182678 0.0013887685 0.29283592 0.046972167 0.116602756 0.022462254 -0.13669991 0.12204385
0.36485043 0.088747054 -0.34807962 -0.077053644 0.05822536 -0.39339757 -0.27509072 -0.010771086
0.18131436 0.085555255 0.16165875 0.041225754 0.048707884 -0.17159219 0.14273906 -0.7161976
0.47027937 -0.0024135916 -0.4170554 0.110679656 -0.70887136 0.082277276 -0.056518156 -1.2644314
0.08474173 -0.21506651 -0.08470573 -0.06896236 0.040624056 -0.3755862 0.070718914 0.065924056
0.17622411 -0.0034453038 -0.44258094 0.168111 0.042990834 0.14308335 -0.17586787 0.071971685
0.05249554 0.14023894 0.040295366 0.048853558 -0.11759937 0.09589902 0.041648496 -0.10002379
-0.083408065 0.2892509 -0.2738392 0.1515237 0.07080194 0.056830704 -0.14706644 -0.0077018808
0.07136379 0.2483924 -0.2067588 -0.10653168 0.1765086 0.008432718 0.23560947 0.076955244
0.22814977 0.17643414 0.1261877 0.14696741 0.36743855 0.27991858 -0.981712 0.09079329
0.6166578 0.106826514 0.2194533 0.070631966 -0.105530046 -0.21000612 -0.12886898 0.1359096
0.07089995 0.007286045 -0.52531385 -0.08524786 0.2482416 -0.21032226 0.05366501 -0.03085234
0.013251454 0.3049707 0.037782628 -0.06702917 0.15811431 0.11695471 0.5288037 -0.009684334
0.15360197 -0.5979658 -0.14328964 0.20704508 0.0026106818 0.15859097 0.0987759 0.07833042
-0.7843177 0.09117092 -0.33764395 0.9974416 0.19747959 0.06627883 -0.08017303 0.40969667
00000000: afc2 0e3d 1613 0d3e 889e 8ebe 2932 16bf
00000010: 2357 fe3d ffb2 8a3e d261 ae3d 2df1 79bc
00000020: c5df 80bc 65a8 a3be 6244 c8be 3fbb 47be
00000030: e801 8ebe 7824 ffbd 152a 80bc de2b 3c3e
00000040: d6e3 623d 9464 043e 5c00 8bbe c885 95be
00000050: bc52 20be d7ec 8f3d 25bd b2be fc35 c13c
00000060: cc63 21be 571a f13d 574b f0bc bbc9 3d3c
00000070: 7be9 dd3d eab3 0b3d 3871 053e 1ee8 f73e
00000080: 0cce a73d ad6a 99be 90b0 893e 3fc9 fdbd
00000090: dfb1 94bf f3d9 4dbf 7f02 8a3d ac0e 96bd
000000a0: c4f7 27bd 4aa7 06bf a1bf bcbd 2eaf 96bd
000000b0: d44d b8ba 6a99 3e3d 43cc 143e b127 913d
000000c0: e35a b8bd 6eed 953e 9f47 053e 734a 4ebe
000000d0: 98a9 143e 76c3 543d 15c5 29be 8df5 c73c
000000e0: fdce 17bf 052e 133f abee 98bd 8d1b 213c
000000f0: 9691 b73e 054f 65be dbba 55bf 634b 87be
00000100: cdac 20be 72a2 f7bc 1646 293e 060a f73d
00000110: 151b 973e d594 f9bd 3e00 27be c348 b23d
00000120: 5306 d73c 845f 8fbd 422b cb3d 3284 87bd
00000130: a2c4 cbbe 3c87 c2be fb54 6d3d a211 3c3e
00000140: 0944 81bb 2539 a5bc 103f 9b3c 41be 8ebd
00000150: fa72 35be db0c 053f 9bb1 fcbe 330c b13d
00000160: 3e3f fe3e 6456 dc3d 0066 47be 17f4 8dbd
00000170: fbe5 50be fd49 c0bd 9f18 14be 9f44 a33d
00000180: 099d 89be b220 5fbe d545 0f3c 8381 0c3d
00000190: d6ef 5cbe 4aa0 11bc 1ee4 303d d603 b63c
000001a0: f988 97be 9a80 fbbd 6953 533e ea32 fbbd
000001b0: 23f0 b2be 3206 5abe 7353 c23e 2fc9 e83b
000001c0: af13 3c3d b31a 00bf 3085 f03d 2b88 963e
000001d0: c97f cfbd 3c20 d83e 0868 3cbd 65a2 813e
000001e0: 0b04 8f3d 1411 6e3d b4d1 f9bc d4d3 ddbe
000001f0: 187f 46be 24e6 73bd 1bb3 7cbd 7ef9 113e
00000200: 672b 643b aa56 273e 16a0 9bbd 5fb5 abbd
00000210: 4a71 80be c44c 433e a4d1 f73d 0e56 053d
00000220: 8f8a d03d 5707 b63a 97ee 953e e365 403d
00000230: 6dcd ee3d c302 b83c 10fb 0bbe 20f2 f93d
00000240: adcd ba3e 04c1 b53d 7e37 b2be 4dce 9dbd
00000250: b77d 6e3d 686b c9be b1d8 8cbe 3679 30bc
00000260: 79aa 393e 9837 af3d df89 253e 56dc 283d
00000270: eb81 473d ddb5 2fbe 302a 123e ba58 37bf
00000280: 75c8 f03e 592d 1ebb 4988 d5be 04ac e23d
00000290: 9878 35bf fd80 a83d 957f 67bd e3d8 a1bf
000002a0: 128d ad3d 653a 5cbe 337a adbd 233c 8dbd
000002b0: 6965 263d d64c c0be 14d5 903d 3103 873d
000002c0: 1874 343e 9bca 61bb f899 e2be 4a25 2c3e
000002d0: 2817 303d 7184 123e b516 34be e465 933d
000002e0: 9005 573d cc9a 0f3e c10c 253d ab1a 483d
000002f0: f0d7 f0bd b566 c43d 9d97 2a3d 46d9 ccbd
00000300: d9d1 aabd b218 943e a734 8cbe 0729 1b3e
00000310: 9c00 913d 50c7 683d 9698 16be 0f60 fcbb
00000320: 2e27 923d 945a 7e3e 94b8 53be 482d dabd
00000330: acbe 343e 6229 0a3c 9c43 713e b69a 9d3d
00000340: 18a0 693e 27ab 343e 5937 013e a07e 163e
00000350: e820 bc3e 7d51 8f3e 7a51 7bbf d5f1 b93d
00000360: 49dd 1d3f dcc7 da3d 5eb8 603e 7ea7 903d
00000370: 2320 d8bd d80b 57be 3bf6 03be e32b 0b3e
00000380: fe33 913d c6bf ee3b f87a 06bf 6e96 aebd
00000390: 0c33 7e3e b85e 57be d7cf 5b3d 0cbe fcbc
000003a0: a01c 593c 1f25 9c3e f5c1 1a3d 9746 89bd
000003b0: b8e8 213e f385 ef3d ae5f 073f 0aab 1ebc
000003c0: d649 1d3e 4914 19bf 85ba 12be a003 543e
000003d0: f917 2b3b ac65 223e 054b ca3d b36b a03d
000003e0: 0bc9 48bf d2b7 ba3d abdf acbe 5558 7f3f
000003f0: 1738 4a3e 32bd 873d c231 a4bd c3c3 d13e

shared.net.3.bias f4 [64]
-0.23472726 -0.5252872 -0.47630742 0.094106026 -0.28636876 -0.25192946 0.38574293 -0.011986518
0.49884436 -0.33368468 0.26573277 -0.47073162 0.607308 -0.26731804 0.09515036 0.106982954
-0.08945148 0.1544444 -0.4026301 0.16751333 -0.5914582 -0.39177606 -0.1499728 0.31583893
0.04831367 -0.37003535 0.086228766 -0.48109776 -0.35910848 -0.13771862 0.17879038 0.017487627
-0.27041847 0.38831362 -0.1406334 0.021062462 0.91365504 -0.14707628 0.42434677 -0.19893315
0.056700516 -0.2179407 0.16943991 -0.23913787 0.2595831 -0.16237235 0.02764807 -0.24168488
-0.118374646 0.07780866 -0.45408243 -0.04641648 -0.021510813 0.180029 -0.50551057 0.30020082
-0.18551749 -0.35755602 0.1349257 -0.16470113 -0.14002506 0.17851384 -0.32136342 0.5075197
00000000: 585c 70be 3979 06bf 91de f3be a9ba c03d
00000010: ed9e 92be e6fc 80be 1980 c53e 1a63 44bc
00000020: 8768 ff3e b8d8 aabe 200e 883e bc03 f1be
00000030: 8978 1b3f e9dd 88be 31de c23d e119 db3d
00000040: 5632 b7bd ac26 1e3e 8825 cebe 9d88 2b3e
00000050: ce69 17bf df96 c8be 7892 19be a4b5 a13e
00000060: 8ee4 453d 4675 bdbe b598 b03d 7252 f6be
00000070: 11dd b7be 1c06 0dbe d314 373e 3642 8f3c
00000080: 4a74 8abe 0bd1 c63e 3402 10be 2f8b ac3c
00000090: 4ce5 693f 2a9b 16be fb43 d93e 22b5 4bbe
000000a0: cd3e 683d d92b 5fbe a881 2d3e 8fe0 74be
000000b0: 13e8 843e f044 26be 357e e23c 3e7c 77be
000000c0: 686e f2bd 265a 9f3d 7e7d e8be 351f 3ebd
000000d0: 7237 b0bc 8659 383e 2469 01bf ecb3 993e
000000e0: 4cf8 3dbe 9511 b7be f629 0a3e 6aa7 28be
000000f0: bb62 0fbe 55cc 363e bf89 a4be d0ec 013f

shared.net.4.weight f4 [64]
1.7172852 1.9286835 2.4681175 1.997703 1.8594587 2.373377 2.233169 2.1551592
2.48927 2.0516949 1.9520562 2.1773853 2.2221377 1.9045182 2.3311448 2.0643125
2.6303158 1.9797949 2.8222811 2.0092351 2.1441154 2.5282254 2.4901304 2.3439312
2.4713008 1.8366027 2.4434395 1.8395406 1.993331 2.8962173 2.35683 2.122607
2.722979 2.165521 2.529419 2.0135803 2.119391 2.2150147 2.39041 2.0080125
3.0330808 2.0191336 2.3602333 2.3145084 2.709333 1.9934621 2.5867877 2.7378945
2.2863793 2.0189319 2.8785686 4.279643 2.3460648 2.2953768 2.8178566 2.2025335
2.4893618 2.3146849 2.5603228 1.9182001 2.1099901 1.7789682 2.6991987 2.4612644
00000000: 00d0 db3f 1adf f63f a3f5 1d40 bbb4 ff3f
00000010: be02 ee3f 69e5 1740 3eec 0e40 21ee 0940
00000020: 3350 1f40 f84e 0340 fadc f93f 485a 0b40
00000030: 8137 0e40 41c7 f33f 7a31 1540 b21d 0440
00000040: 1857 2840 eb69 fd3f 41a0 3440 4f97 0040
00000050: 3039 0940 72ce 2140 4c5e 1f40 f802 1640
00000060: cb29 1e40 cc15 eb3f 5061 1c40 1176 eb3f
00000070: 7825 ff3f a05b 3940 4dd6 1640 cbd8 0740
00000080: 4a45 2e40 e597 0a40 00e2 2140 80de 0040
00000090: 1aa4 0740 cdc2 0d40 7afc 1840 4783 0040
000000a0: ff1d 4240 7c39 0140 100e 1740 e820 1440
000000b0: b665 2d40 c429 ff3f ee8d 2540 aa39 2f40
000000c0: 0a54 1240 2e36 0140 783a 3840 d6f2 8840
000000d0: ed25 1640 74e7 1240 c357 3440 4ff6 0c40
000000e0: b451 1f40 cc23 1440 54dc 2340 9587 f53f
000000f0: 140a 0740 3bb5 e33f acbf 2c40 5b85 1d40

shared.net.4.bias f4 [64]
-2.2073362 -2.5420954 -1.033799 -1.6691424 -2.0550654 -1.4801546 -1.0255429 -1.987262
-1.8094267 -1.4718596 -1.8367063 -2.1173387 -0.842844 -0.96986955 -1.0932045 -2.0709217
-1.4928775 -1.9145325 -1.0895096 -1.3480505 -3.1604424 -2.7531028 -1.4817754 -1.7109821
-1.146894 -2.3823268 -1.2104862 -1.7366902 -1.6773949 -0.68181264 -1.902011 -1.868938
-1.0672648 11.435182 -0.67560965 -1.2501223 -2.2645082 -1.63644 -1.8161106 -1.7894411
-1.1546516 -1.5592722 -1.1345657 -1.1382006 -1.5416485 -1.5724982 -1.5689795 -0.9944757
-2.1494133 -0.85223675 -2.3603334 3.690205 -1.5899054 -1.428721 -3.154312 -1.5286986
-1.4843723 -1.4539462 -2.094128 -1.6841651 -2.2002444 -1.8282447 -0.6600959 -0.99014
00000000: ff44 0dc0 b1b1 22c0 8753 84bf 75a6 d5bf
00000010: 3186 03c0 b575 bdbf fd44 83bf 9a5e febf
00000020: 4b9b e7bf e565 bcbf 3119 ebbf 7a82 07c0
00000030: a0c4 57bf 5f49 78bf 20ee 8bbf fb89 04c0
00000040: 9c16 bfbf 670f f5bf 0d75 8bbf eb8c acbf
00000050: b044 4ac0 d632 30c0 d1aa bdbf 7601 dbbf
00000060: 6ccd 92bf 0b78 18c0 36f1 9abf dd4b debf
00000070: e0b4 d6bf 468b 2ebf 1975 f3bf 5c39 efbf
00000080: 229c 88bf 81f6 3641 c1f4 2cbf 0204 a0bf
00000090: b4ed 10c0 de76 d1bf 5076 e8bf 680c e5bf
000000a0: a0cb 93bf 3b96 c7bf 7339 91bf 8fb0 91bf
000000b0: bd54 c5bf 9f47 c9bf 52d4 c8bf f695 7ebf
000000c0: fd8f 09c0 302c 5abf b40f 17c0 522c 6c40
000000d0: 0582 cbbf 54e0 b6bf 3fe0 49c0 65ac c3bf
000000e0: e9ff bdbf e91a babf 3106 06c0 b992 d7bf
000000f0: ced0 0cc0 ec03 eabf 0bfc 28bf d179 7dbf

shared.net.4.running_mean f4 [64]
-0.94033074 0.64958954 -0.37118623 -2.2100222 -1.326426 -2.6902452 -2.834749 -1.4711691
-1.952228 -1.7988341 -0.88367474 -0.8635656 -1.5417308 -2.28103 -0.5855176 0.57167643
-1.3726802 -1.8616877 -0.9326897 -1.4713418 0.38091153 -0.4033654 -2.4694788 -1.2210649
-4.2916446 0.28512913 -2.9405985 -3.9207115 -1.3006204 -2.0574465 0.68923897 -1.2314181
-2.9230578 -1.0295241 -1.260028 -2.4949825 -0.02654997 -0.7140739 -0.24801996 -1.0815859
-1.9887551 -1.3809322 -2.3925066 -2.585778 -1.1652149 -0.011404413 -2.8869147 -3.0654898
0.23492724 -3.1517851 -0.37054047 1.2504315 -1.9169345 -1.7316235 -0.5029257 -1.2392948
0.43208915 -2.8692849 -1.3713835 0.085654825 0.11357625 -0.63181645 -1.2586018 -1.8444438
00000000: 84b9 70bf 804b 263f 1f0c bebe 0171 0dc0
00000010: 54c8 a9bf fa2c 2cc0 876c 35c0 454f bcbf
00000020: 9be2 f9bf 3240 e6bf 8238 62bf a312 5dbf
00000030: 6f57 c5bf 65fc 11c0 7be4 15bf 6359 123f
00000040: fcb3 afbf c84b eebf c1c4 6ebf ee54 bcbf
00000050: d606 c33e e985 cebe f10b 1ec0 db4b 9cbf
00000060: 2755 89c0 72fc 913e c432 3cc0 f0ec 7ac0
00000070: bb7a a6bf 34ad 03c0 f771 303f 1c9f 9dbf
00000080: 6113 3bc0 72c7 83bf 9948 a1bf cbad 1fc0
00000090: 537f d9bc 8ccd 36bf f2f8 7dbe 6871 8abf
000000a0: 878f febf 63c2 b0bf d41e 19c0 637d 25c0
000000b0: c325 95bf 93d9 3abc 36c3 38c0 fc30 44c0
000000c0: c490 703e d9b6 49c0 7bb7 bdbe 240e a03f
000000d0: 1c5e f5bf d7a5 ddbf bdbf 00bf 36a1 9ebf
000000e0: ca3a dd3e 5da2 37c0 7f89 afbf cc6b af3d
000000f0: aa9a e83d b9be 21bf dd19 a1bf bc16 ecbf

shared.net.4.running_var f4 [64]
0.35827547 0.34117806 0.47174475 0.40935352 0.86200106 0.95749146 0.9417319 0.17640622
1.0679152 1.1002384 0.3359271 0.57840645 2.8676286 1.2433045 2.812695 0.19732232
0.61769205 0.78296226 1.5849475 4.9717307 0.25316417 0.5627796 1.533569 0.52294505
2.2497869 0.7644356 1.0141749 0.96692806 0.47476628 1.9890043 0.35567114 0.34902376
1.0182693 1.3944317 2.5204215 1.2699684 0.8901777 0.3009308 0.5791851 0.6033257
4.712882 0.37849057 1.5270835 0.8167527 2.8282862 0.21425246 0.8582426 1.5892937
1.4297886 0.7888003 0.3410852 1.4241929 0.46478352 0.7100921 0.40284294 0.9187782
0.13719882 1.084392 0.92968774 1.1813593 0.7000636 1.053006 2.0279987 1.1899716
00000000: e26f b73e e4ae ae3e 8788 f13e c996 d13e
00000010: 1aac 5c3f 291e 753f 5815 713f d5a3 343e
00000020: 72b1 883f 9dd4 8c3f a3fe ab3e 7212 143f
00000030: 3a87 3740 9a24 9f3f 3203 3440 dd0e 4a3e
00000040: 1121 1e3f 3770 483f 8fdf ca3f 6b18 9f40
00000050: bc9e 813e 5312 103f fd4b c43f badf 053f
00000060: 82fc 0f40 0db2 433f 7cd0 813f 9988 773f
00000070: 9114 f33e b197 fe3f 871a b63e 3eb3 b23e
00000080: a656 823f bd7c b23f 964e 2140 538e a23f
00000090: b0e2 633f 9a13 9a3e 7a45 143f 8e73 1a3f
000000a0: eecf 9640 84c9 c13e 7977 c33f b416 513f
000000b0: a402 3540 ff64 5b3e c9b5 5b3f fa6d cb3f
000000c0: 5003 b73f d1ee 493f b8a2 ae3e f44b b63f
000000d0: 1bf8 ed3e 99c8 353f 6e41 ce3e 0c35 6b3f
000000e0: d97d 0c3e 5bcd 8a3f 0400 6e3f c836 973f
000000f0: 5e37 333f e7c8 863f bbca 0140 fd50 983f

V.weight f4 [1, 64]
-1.99373 -2.5152347 -1.1273752 -1.4365518 -2.7682486 -1.9518584 -1.41067 -1.7924466
-2.118595 -2.0597796 -1.388199 -2.5163891 -1.9343252 -0.9901623 -1.598538 -1.8325697
-1.6838583 -1.8197808 -1.9639986 -1.4328352 -4.0061293 -2.6408424 -2.0543118 -1.9575075
-1.7301029 -2.4728978 -1.5325862 -2.0759704 -1.7429049 -1.9840391 -2.7782395 -1.8851888
-2.1096892 10.367375 -1.5653452 -1.3300807 -1.7739323 -1.9993821 -2.161234 -1.6267015
-2.1949947 -1.4449654 -1.4923402 -1.4917657 -2.5183 -1.6867925 -2.2625482 -1.9788285
-2.1794481 -1.3558819 -3.4055357 3.5899343 -1.7839918 -1.8194548 -3.4706745 -1.6681732
-1.886057 -1.7403623 -2.2968695 -1.3675072 -2.7092226 -1.7703632 -1.8494624 -1.6869432
00000000: 8b32 ffbf 9bf9 20c0 d54d 90bf eee0 b7bf
00000010: fc2a 31c0 7fd6 f9bf d690 b4bf e46e e5bf
00000020: 0f97 07c0 6ed3 03c0 81b0 b1bf 850c 21c0
00000030: f897 f7bf 477b 7dbf e59c ccbf a591 eabf
00000040: ab88 d7bf 94ee e8bf 4e64 fbbf 2567 b7bf
00000050: 3632 80c0 9003 29c0 d879 03c0 9b8f fabf
00000060: 0374 ddbf f543 1ec0 c92b c4bf b3dc 04c0
00000070: 8217 dfbf fef4 fdbf adce 31c0 de4d f1bf
00000080: 2605 07c0 c5e0 2541 3b5d c8bf 1640 aabf
00000090: 3710 e3bf c1eb ffbf a851 0ac0 c137 d0bf
000000a0: cb7a 0cc0 a0f4 b8bf 0105 bfbf 2ef2 bebf
000000b0: d42b 21c0 d1e8 d7bf 97cd 10c0 414a fdbf
000000c0: 147c 0bc0 8a8d adbf 4cf4 59c0 7cc1 6540
000000d0: d859 e4bf e5e3 e8bf 881f 5ec0 b386 d5bf
000000e0: 516a f1bf 31c4 debf e9ff 12c0 7a0a afbf
000000f0: e763 2dc0 439b e2bf 2fbb ecbf c1ed d7bf

mu.weight f4 [1, 64]
-0.2453087 -0.280543 0.9502399 -0.32580674 -0.9843281 -1.1140944 0.20089403 0.08557888
0.37341022 -2.482966 0.6016343 -1.1314267 -0.3870894 -0.5283836 -0.24144417 -4.2121553
2.0052423 -0.64725333 0.016394014 0.49614808 0.17324303 1.0871353 0.27771586 -0.61341316
-0.28271458 -2.5239258 0.46753854 -0.88074255 -0.75003415 2.0887542 0.029770646 -0.5605549
0.6730427 -0.23060344 0.39797986 -1.0539789 0.5322393 -1.0475562 0.72900546 -0.4247172
0.39293095 -0.66070366 0.24539864 -1.1015911 -1.2718077 1.072451 0.5915973 1.5405426
0.023455229 -1.1436582 0.11469953 0.8309822 0.14106797 -0.19249544 1.9846833 0.14918205
-0.37495482 -0.23803185 2.2622724 -2.2183826 -1.4552671 -0.0670859 0.70893717 -1.351283
00000000: 3432 7bbe 55a3 8fbe ec42 733f 24d0 a6be
00000010: edfc 7bbf a59a 8ebf 2ab7 4d3e fb43 af3d
00000020: a02f bf3e eae8 1ec0 b504 1a3f 97d2 90bf
00000030: 9530 c6be 2644 07bf 243d 77be fac9 86c0
00000040: e455 0040 65b2 25bf bd4c 863c 1f07 fe3e
00000050: 9f66 313e 4027 8b3f c630 8e3e a508 1dbf
00000060: f7bf 90be 0088 21c0 3661 ef3e 5878 61bf
00000070: 3d02 40bf 26ae 0540 92e1 f33c 8780 0fbf
00000080: 874c 2c3f 4f23 6cbe 04c4 cb3e c8e8 86bf
00000090: d640 083f 5216 86bf 1aa0 3a3f 8874 d9be
000000a0: 3f2e c93e e023 29bf c849 7b3e f000 8dbf
000000b0: 98ca a2bf 1346 893f ec72 173f 8030 c53f
000000c0: 2e25 c03c 6463 92bf 96e7 ea3d 40bb 543f
000000d0: 1f74 103e 861d 45be 1a0a fe3f 2ec3 183e
000000e0: 14fa bfbe 9fbe 73be 12c9 1040 fbf9 0dc0
000000f0: 3146 babf 5564 89bd e87c 353f d7f6 acbf
